confidence_transformer.pth (torch, 153843 bytes, 17 tensors)

embedding.weight f4 [26, 64]
0	0x4025775e	2.5854106
1	0x3fdebcec	1.7401404
2	0x3f4703b0	0.7774
3	0xc011db4b	-2.2790096
4	0x3f8d118c	1.102098
5	0xbfd57b6a	-1.6678288
6	0xbea747c0	-0.32671928
7	0xc0160b79	-2.3444502
8	0xbf2f181a	-0.6839615
9	0x40025388	2.0363483
10	0xbf466f03	-0.7751314
11	0xbfa3b9e0	-1.27911
12	0xbf8b72d5	-1.0894419
13	0xbee02029	-0.43774536
14	0xbef5e7a1	-0.4802828
15	0x3f6f61a7	0.9350838
16	0x3fc99622	1.5748942
17	0xbc18c395	-0.009323974
18	0xbf2a8e83	-0.66623706
19	0x3ef6c35d	0.48195925
20	0xbf0a5bf3	-0.54046553
21	0x3f83aa5b	1.0286363
22	0x3ee5ad61	0.4485884
23	0x40014c4d	2.020282
24	0x3fb83d80	1.4393768
25	0x3fda7a21	1.7068521
26	0x3f2ea078	0.68213606
27	0x3fd7c555	1.6857096
28	0x3e7d4fe6	0.2473751
29	0x3e9199dc	0.28437698
30	0xbf0c660f	-0.5484323
31	0x3f1affe0	0.60546684
32	0xbfaddff2	-1.3583968
33	0xbf87d37b	-1.0611414
34	0x3a7b7698	0.0009592562
35	0x3ffd760b	1.9801649
36	0x3f167644	0.5877421
37	0xbe2bab68	-0.16764605
38	0xbb018053	-0.0019760325
39	0xbfa399d2	-1.2781317
40	0xbfc9376d	-1.572004
41	0x3fa3fed1	1.2812139
42	0xbfbd232a	-1.4776356
43	0xbf63bad1	-0.88956934
44	0xbfa0efc4	-1.2573171
45	0x4003c069	2.0586188
46	0xbfac880e	-1.347902
47	0xbf4d96cc	-0.8030822
48	0xbf829bfe	-1.0203855
49	0xbf587e10	-0.84567356
50	0x3e84a918	0.25910258
51	0x3f738333	0.9512207
52	0xbeb04eec	-0.34435213
53	0x3f99a63f	1.2003859
54	0xbf8b1767	-1.0866517
55	0xbf2939dc	-0.6610391
56	0xbfbfd040	-1.4985428
57	0xbd3bb3ec	-0.045825884
58	0x3e38c0ec	0.18042344
59	0x3f027ba5	0.50969917
60	0xbe9ca59e	-0.30595106
61	0x3ffd8aa2	1.9807932
62	0xbfa01612	-1.2506735
63	0x3fdabd64	1.7089047
64	0x3fc03b19	1.5018035
65	0x3f55d355	0.8352559
66	0x4016714d	2.3506653
67	0x3f04dc05	0.51898223
68	0x3dd66002	0.10467531
69	0xbdd43358	-0.103613555
70	0xbf7b6156	-0.981954
71	0x3f8a1905	1.0788885
72	0xbf02d9a1	-0.51113325
73	0x3e55ad17	0.2086681
74	0x3e4c080e	0.19924948
75	0x3f130ceb	0.57441586
76	0x3f95d4ae	1.170553
77	0xbea0fe29	-0.3144391
78	0xc01c0b84	-2.4382029
79	0xbf7613f4	-0.96124196
80	0x3e5e6d3a	0.21721354
81	0xbea9b243	-0.33143815
82	0xbf9de3aa	-1.2335103
83	0xbd7b9940	-0.061425447
84	0x3efbeb6e	0.49203056
85	0x3f0661a9	0.5249277
86	0x3f62f555	0.88655597
87	0x3e016c25	0.1263891
88	0x3f84677a	1.0344079
89	0xbeb9b0b5	-0.3626763
90	0xbfb0d754	-1.3815713
91	0x3f40fe1e	0.7538775
92	0xbfccbce3	-1.5995144
93	0xbf8f15c0	-1.1178513
94	0x3f868ff5	1.0512682
95	0x3f448eae	0.7678021
96	0xc03337e1	-2.8002856
97	0x3f834f53	1.0258583
98	0x3fa28c7f	1.2699126
99	0x3ebd3fc4	0.36962712
100	0x3f4c65f1	0.7984305
101	0x3eb71bbc	0.35763347
102	0x3fa66b9e	1.3001592
103	0xbf3d8520	-0.7403126
104	0xbea932b4	-0.33046496
105	0x3f372ca6	0.71552503
106	0x3eefc9ae	0.46833557
107	0x3f02f285	0.51151305
108	0x3eaa308f	0.33240172
109	0x3fc01d38	1.5008917
110	0x3e0e5258	0.13898599
111	0xbf24ce42	-0.64377224
112	0xbfd522f5	-1.6651293
113	0xbe39c849	-0.18142809
114	0xbf607471	-0.87677675
115	0x3eaaf80b	0.33392367
116	0x3f39ced8	0.72581244
117	0xbf1b661f	-0.607027
118	0xbe882b37	-0.2659547
119	0x3ef746a5	0.48296085
120	0xbdcb69d8	-0.099322975
121	0x3e8d30b9	0.27576235
122	0x3da8e25e	0.08246301
123	0x3f9c21fd	1.2197872
124	0x3fa61074	1.2973771
125	0x3e824cca	0.2544921
126	0x3f2ea4bf	0.6822013
127	0x3f27d88f	0.6556482
128	0x3fffc879	1.9983054
129	0x3f9a087f	1.2033843
130	0xbfbcf8a4	-1.4763379
131	0xbf5ad7bc	-0.85485435
132	0xbe6ec855	-0.23318608
133	0x3fdf1482	1.7428133
134	0x3f468535	0.7754701
135	0x3f270b62	0.65251744
136	0x3fb6d1b8	1.4282751
137	0xbde70111	-0.112795
138	0xbfe2a668	-1.7707033
139	0x3f7e1d33	0.99263304
140	0x3e22a87a	0.15884581
141	0x3f90be40	1.130806
142	0xbf710f4e	-0.9416398
143	0x3f1f37fe	0.6219481
144	0xbf705870	-0.93884945
145	0x3f4e1163	0.8049528
146	0x3fbdd8fc	1.4831843
147	0x3fd08bad	1.6292626
148	0x3e6bdaf3	0.23032741
149	0xbeabcee3	-0.3355628
150	0xbf7f48fb	-0.99720734
151	0x3e07b787	0.13253604
152	0x3ed94439	0.42434862
153	0x3f7623dd	0.96148473
154	0xbf4a81dc	-0.791044
155	0x3fb034b9	1.376609
156	0xc017d2b8	-2.3722363
157	0xbed704a5	-0.4199573
158	0xbfa78441	-1.3087236
159	0x3f90950a	1.1295483
160	0xc004183c	-2.0639791
161	0x3ec1ef16	0.3787772
162	0x3ec807aa	0.39068347
163	0xbec24601	-0.37944034
164	0x3eb91817	0.36151192
165	0xbf37b0c9	-0.7175413
166	0x3f04224e	0.51614845
167	0xbf9ea99e	-1.2395513
168	0xbfca85ac	-1.5822043
169	0x3f5f0124	0.87111115
170	0x3fb80849	1.4377528
171	0x3e60f9f6	0.21970353
172	0xbfc3173a	-1.5241463
173	0x3f00ef82	0.5036546
174	0x3f972e7b	1.181106
175	0x3ffea70e	1.9894731
176	0x3dcdf01b	0.10055562
177	0x3d9aec21	0.07564569
178	0xbf84c1a8	-1.0371599
179	0xbec9b2be	-0.39394182
180	0xbf62aa62	-0.88541234
181	0xc00acc81	-2.168732
182	0xbf936c34	-1.1517396
183	0xbeb963e3	-0.3620902
184	0xbf0755b1	-0.5286513
185	0xbfe0ae53	-1.75532
186	0xbffe1bda	-1.985225
187	0x3d55721a	0.05211077
188	0x3fa930e2	1.3218043
189	0xbf2ade6a	-0.66745627
190	0x3f40193e	0.75038517
191	0x3f38037e	0.7188033
192	0x3fe31f29	1.7743884
193	0xbf6beac4	-0.921551
194	0x3f76631e	0.9624499
195	0xbeac8d40	-0.33701515
196	0xbf967155	-1.1753336
197	0x3eb75342	0.35805708
198	0x3ef52111	0.4787679
199	0x3fad460b	1.3537
200	0x3f06ac01	0.5260621
201	0x40072ba1	2.112038
202	0xbf055057	-0.52075714
203	0xbf6e97f4	-0.9320061
204	0x3e3d9aef	0.18516134
205	0x3f88cae5	1.0686918
206	0x3fa73c85	1.3065344
207	0x3eeb6f6e	0.45983452
208	0xbf508b63	-0.8146269
209	0xbf82b7f8	-1.0212393
210	0xbefd669f	-0.49492356
211	0xbf179dce	-0.59225166
212	0x3e1e0500	0.15431595
213	0x3ee1ac39	0.44076708
214	0xbe17d9f0	-0.1482923
215	0xc0146160	-2.3184433
216	0xbecbc60b	-0.39799532
217	0x3f8a4d60	1.0804863
218	0xbfe3f35d	-1.7808644
219	0x3fc107a2	1.5080454
220	0x3e9e6d6b	0.30942854
221	0xbf001441	-0.50030905
222	0x3f847afc	1.0350032
223	0x3fd8465b	1.6896471
224	0xbb939f1d	-0.0045050518
225	0x3fd55974	1.6667924
226	0x3e1d9d40	0.15392017
227	0xbf87b65f	-1.060253
228	0xbf1299b0	-0.5726576
229	0x3dab25b8	0.08356804
230	0x3eccc065	0.39990535
231	0x3ffe9e57	1.9892071
232	0xbd936e30	-0.07198751
233	0xbf67f5cf	-0.9060945
234	0xc0031e1a	-2.0487123
235	0xbf8a6007	-1.0810555
236	0x3c905e47	0.01762308
237	0x3da034f2	0.078225985
238	0x3e45cb4a	0.1931583
239	0x3ed1c0b7	0.40967342
240	0xbf6ddb7c	-0.9291303
241	0x3e8d68e4	0.27619088
242	0xbf09f3bb	-0.5388753
243	0x3eecd797	0.46258232
244	0xbf5f3420	-0.8718891
245	0xbcde2753	-0.02711836
246	0xbeb4dca1	-0.35324576
247	0x3fbb5faa	1.4638569
248	0x3fa0b212	1.2554343
249	0xbf370758	-0.7149558
250	0x3f5a9a75	0.8539193
251	0x3f035364	0.5129912
252	0x3f0a2bd0	0.539731
253	0x3f10c4f0	0.565505
254	0x3f017b91	0.5057917
255	0x3e63cae4	0.22245365

attn.in_proj_weight f4 [192, 64]
0	0x3e8c5e7d	0.2741584
1	0xbbdf5f89	-0.0068168086
2	0xbe9c04ff	-0.30472562
3	0xbeabceac	-0.33556116
4	0xbe4d7fb5	-0.20068248
5	0xbc7c9746	-0.015416926
6	0x3b47a83e	0.003046527
7	0xbe1af497	-0.15132366
8	0x3ec9b9a8	0.39399457
9	0xbe909d40	-0.28244972
10	0xbe9c0b89	-0.3047755
11	0xbe3669ff	-0.17813872
12	0xbeb2870c	-0.34868658
13	0xbd9f7ff3	-0.07788076
14	0xbe1895a7	-0.14900838
15	0xbcf30bc7	-0.029668702
16	0xbdc2c560	-0.095103025
17	0x3e2e5a6d	0.17026682
18	0x3df95a56	0.12175433
19	0x3eae3fd7	0.3403308
20	0x3dc8846f	0.09790885
21	0xbe3719cb	-0.17880933
22	0xbc48201d	-0.012214688
23	0x3c38e7e1	0.011285753
24	0x3d1da9b8	0.038491935
25	0x3e179b2b	0.14805286
26	0xbdb7f07a	-0.08981414
27	0x3d8198cc	0.06327972
28	0x3e65d7dd	0.22445627
29	0x3e757d34	0.23973542
30	0x3d53e369	0.051730547
31	0xbe12a52c	-0.1432082
32	0xbd44f27e	-0.04808282
33	0x3e5f7324	0.21821266
34	0x3cabb623	0.020960873
35	0x3ca32e29	0.019919472
36	0xbe72dc6a	-0.23716894
37	0xbe1a7a54	-0.15085727
38	0xbe020345	-0.1269656
39	0xbda27412	-0.07932295
40	0xbd5ea187	-0.054353263
41	0x3e2b09d8	0.16702974
42	0xbe5ff59e	-0.2187104
43	0xbd32b998	-0.043634027
44	0xbe20cd98	-0.15703428
45	0xbdcadf5d	-0.099058844
46	0x390730bb	0.00012892757
47	0x3e737690	0.23775697
48	0xbd6ff6e0	-0.058585048
49	0xbe03140b	-0.12800615
50	0x3e8c454e	0.27396625
51	0x3e5c0bf5	0.21488936
52	0x3d76f306	0.06029036
53	0x3d38f978	0.045159787
54	0xbe00ca03	-0.12577061
55	0xbdf3361e	-0.118755564
56	0x3e009a55	0.12558873
57	0x3c694e78	0.0142399
58	0xbdd3e640	-0.10346651
59	0x3eb10cfd	0.34580222
60	0x3d0d15a5	0.03444447
61	0x3e84303e	0.25818056
62	0xbda9ab68	-0.08284646
63	0xbd8a83e8	-0.0676344
64	0xbe20d02d	-0.15704413
65	0x3eea564b	0.4576896
66	0x3eb9c7b9	0.3628519
67	0x3e75b5e3	0.23995166
68	0x3f53a7ec	0.82678103
69	0xbdb95a89	-0.09050471
70	0x3e91b191	0.28455785
71	0xbe896afa	-0.2683943
72	0xbe91b1a5	-0.28455845
73	0x3f475354	0.77861524
74	0xbd130214	-0.035890654
75	0x3e9374b4	0.28799975
76	0xbd0492ec	-0.032366678
77	0xbeef06c2	-0.46684843
78	0x3eb545f7	0.3540494
79	0xbe53e7c9	-0.20693888
80	0x3e803b82	0.250454
81	0xbd6ea74a	-0.058265008
82	0xbf2322cf	-0.6372499
83	0xbe91efdb	-0.28503308
84	0xbe8a7415	-0.2704169
85	0x3d397375	0.045276124
86	0xbf655df0	-0.8959646
87	0xbe90318a	-0.28162795
88	0x3f390f6c	0.72289157
89	0x3e8e1446	0.27749842
90	0x3ee37ac7	0.4442961
91	0x3dff3871	0.12461937
92	0xbd24d518	-0.040242285
93	0xbe1e2ca9	-0.15446724
94	0xbee5576e	-0.44793266
95	0xbe6ab632	-0.22921064
96	0x3dfb6f14	0.12277046
97	0x3d8f63d1	0.0700146
98	0x3e6308c9	0.2217132
99	0x3f002a9d	0.5006502
100	0x3dba2c4f	0.090904824
101	0x3c940e5b	0.018073251
102	0x3c8a4510	0.016878635
103	0x3e3e9a95	0.18613656
104	0xbe00dd5b	-0.1258444
105	0xbe98ad0b	-0.2981952
106	0xbee6134c	-0.44936597
107	0x3ce7095d	0.028202707
108	0x3e4e57d7	0.20150696
109	0x3ea2efdd	0.31823626
110	0x3f3dccad	0.74140435
111	0xbf350985	-0.7071765
112	0x3dbccc28	0.09218627
113	0x3f169ace	0.58829963
114	0xbea9a139	-0.33130816
115	0x3ebf034a	0.37307197
116	0x3ea335b2	0.31876904
117	0x3ee354eb	0.44400725
118	0xbe86f7e5	-0.26361004
119	0x3f0a40a4	0.54004884
120	0xbf4b0c8a	-0.7931601
121	0xbedc43ba	-0.4302042
122	0x3ee431d5	0.4456927
123	0xbf416fcf	-0.7556123
124	0x3dd4813d	0.10376213
125	0xbe50ad20	-0.20378542
126	0x3f145948	0.5794873
127	0x3f14a3b7	0.5806231
128	0x3e10d6c7	0.14144431
129	0xbe633d1d	-0.22191282
130	0xbe884adb	-0.2661961
131	0xbee6c01d	-0.45068446
132	0xbeaf46bb	-0.3423365
133	0x3e82186f	0.25409266
134	0x3cace6d3	0.02110616
135	0x3ed8765f	0.4227781
136	0x3e9e8dd3	0.30967578
137	0xbec71881	-0.38885882
138	0xbe81003f	-0.251955
139	0xbeb5c4c7	-0.35501692
140	0xbe989774	-0.2980305
141	0xbe0ceed5	-0.13762982
142	0xbe91eebf	-0.2850246
143	0xbcfb4c78	-0.030676112
144	0xbe098dd2	-0.13433006
145	0x3ea16d84	0.31528866
146	0x3dbec0b3	0.09314098
147	0xbcfad7e7	-0.030620528
148	0x3b379877	0.002801446
149	0xbe0331c9	-0.1281196
150	0xbd6a63c6	-0.057224058
151	0xbe8fe774	-0.28106272
152	0x3c1238b2	0.00892465
153	0x3e3669af	0.17813753
154	0x3d4483b0	0.04797715
155	0xbe9fb33c	-0.31191432
156	0x3ee3e9b6	0.44514245
157	0xbde7c877	-0.113175325
158	0x3eefd247	0.46840116
159	0xbe1774dc	-0.14790672
160	0x3e4bad43	0.19890313
161	0x3ef70c3f	0.4825153
162	0x3c7ad87c	0.015310403
163	0xbe119e30	-0.142205
164	0xbecce023	-0.40014753
165	0xbe816b05	-0.25276962
166	0xbdef8f51	-0.11697257
167	0x3d9c8b18	0.076437175
168	0xbc9deec7	-0.019278897
169	0x3e87984a	0.26483375
170	0xbdc87b6e	-0.09789167
171	0xbed74e82	-0.42052084
172	0xbe1bf508	-0.15230191
173	0xbe1157da	-0.14193669
174	0xbdc638f1	-0.096788295
175	0xbcbb15b1	-0.022837492
176	0xbe44dc11	-0.19224574
177	0x3dc11e45	0.094296016
178	0x3f26a101	0.6508942
179	0x3d1532ef	0.036425527
180	0xbdb2dacf	-0.08733141
181	0xbd5510ab	-0.05201785
182	0xbd4b8539	-0.049687598
183	0xbdf39644	-0.11893895
184	0xbdbfb243	-0.093601726
185	0x3e8d0479	0.27542475
186	0xbea5b1c6	-0.32362193
187	0x3dc68252	0.096928254
188	0xbdbe5998	-0.092944324
189	0x3e90d95c	0.28290832
190	0xbe5876c5	-0.21139057
191	0xbdcf2d30	-0.10116041
192	0x3d80343b	0.06259962
193	0x3e9acda3	0.30235013
194	0x3e51efd9	0.20501651
195	0x3ee18fa6	0.44054908
196	0x3dd4a017	0.10382097
197	0xbdf034de	-0.117288336
198	0x3dad54f1	0.08463467
199	0xbed032d4	-0.4066378
200	0xbeda07dc	-0.4258412
201	0xbcfc6e57	-0.030814333
202	0xb9f5ab15	-0.00046857508
203	0x3e04509b	0.12921374
204	0x3ebcc944	0.36872303
205	0x3e8a5ee7	0.2702553
206	0x3e05e5f4	0.13076001
207	0x3db7b71a	0.08970471
208	0x3ea56286	0.3230173
209	0xbe5fefbf	-0.218688
210	0xbd5800ae	-0.052735023
211	0x3e05cff5	0.1306761
212	0xbdc2b54c	-0.09507236
213	0x3c8d8f1a	0.01728015
214	0x3dad9375	0.08475391
215	0x3c93b862	0.018032257
216	0xbda8900d	-0.082306005
217	0xbd24974c	-0.04018335
218	0xbe5b6878	-0.2142657
219	0x3e836470	0.25662565
220	0xbe379786	-0.17928895
221	0xbc793632	-0.015210675
222	0xbefb80e3	-0.4912177
223	0x3eb8980b	0.360535
224	0xbe82c6db	-0.2554234
225	0xbe91da21	-0.28486732
226	0x3e5d788a	0.21628013
227	0xbde40450	-0.11133635
228	0x3f05c9b2	0.5226089
229	0x3af1f471	0.001845969
230	0x3e8f6b90	0.2801175
231	0xbdcd0dfc	-0.10012433
232	0x3ddfb206	0.10922627
233	0xbe6087ea	-0.21926847
234	0x3e1d75d8	0.15376985
235	0x3ed5ae75	0.41734663
236	0x3e69bb54	0.22825366
237	0x3e72d280	0.23713112
238	0xbe5c895a	-0.2153677
239	0xbe567cf4	-0.20946103
240	0x3e24f6e5	0.16109808
241	0xbdcb0fa4	-0.099150926
242	0xbe83f0c6	-0.25769633
243	0xbdca629e	-0.09882091
244	0xbebe29c9	-0.37141255
245	0xbea84485	-0.32864776
246	0x3ed965d6	0.42460507
247	0x3e832b78	0.25619102
248	0x3d453054	0.048141792
249	0xbe869d3a	-0.2629183
250	0x3e6e719d	0.23285528
251	0x3e1c0d57	0.15239464
252	0x3e2732c9	0.16327967
253	0xbe9a5539	-0.30143145
254	0xbd63d014	-0.05561836
255	0xbe123e4b	-0.14281575

attn.in_proj_bias f4 [192]
0	0x3e50fc61	0.20408775
1	0xbf13d91d	-0.57753164
2	0x3e1c28ca	0.15249935
3	0xbd4183c2	-0.047244795
4	0xbea72a18	-0.32649302
5	0x3f175d77	0.5912699
6	0xbdca74ff	-0.098855965
7	0xbeb39239	-0.35072497
8	0xbe88512a	-0.26624423
9	0xbeb3fd1d	-0.35154048
10	0x3e1a4d44	0.15068537
11	0xbea2947e	-0.31753916
12	0xbe5f6b45	-0.21818264
13	0x3e98dda8	0.2985661
14	0x3ee67605	0.45011917
15	0xbe7c5677	-0.24642359
16	0xbecb56af	-0.39714572
17	0x3ec6a739	0.38799456
18	0x3d97855c	0.07398483
19	0xbf01df58	-0.5073142
20	0xbf214359	-0.6299339
21	0x3e2f5ef5	0.17126067
22	0xbe819570	-0.25309324
23	0x3e52259c	0.2052216
24	0xbc98cb36	-0.018651586
25	0xbe4dbdd8	-0.20091951
26	0x3edb19af	0.42793033
27	0x3dddc0ed	0.10827813
28	0x3d84e865	0.06489638
29	0xbedc7368	-0.43056798
30	0x3ee3862b	0.444383
31	0xbe2eb7a6	-0.17062244
32	0x3e1204cc	0.14259642
33	0x3e4246e4	0.18972355
34	0x3ddf1161	0.10891987
35	0x3e203d9e	0.15648505
36	0xbe1a51cb	-0.15070264
37	0x3ce1b56b	0.027552327
38	0x3e92fb13	0.2870718
39	0xbea41bee	-0.3205256
40	0x3db2f890	0.08738816
41	0x3db154e6	0.08658771
42	0xbe619467	-0.22029267
43	0x3eae076a	0.3399003
44	0x3e78daf9	0.24302281
45	0x3e96fba6	0.29488868
46	0x3e12bd64	0.1433006
47	0x3ed7ab15	0.42122713
48	0x3da3c19f	0.07995915
49	0xbeb0fcd6	-0.345679
50	0x3e0d1023	0.13775687
51	0x3e790291	0.24317385
52	0xbe3772e5	-0.17914923
53	0xbea9afbb	-0.33141884
54	0x3d3dcd88	0.046338588
55	0x3e522f10	0.20525765
56	0xbe7203ba	-0.23634234
57	0x3dba527c	0.09097764
58	0xbcb51ace	-0.022107508
59	0xbe4f620e	-0.20252249
60	0xbdae6f7e	-0.08517359
61	0xbd8afdce	-0.06786691
62	0x3e147a8f	0.14499877
63	0x3e17bfbd	0.14819236
64	0x3d7a054e	0.061040215
65	0xbdead1f0	-0.11465824
66	0xbdfe929e	-0.12430309
67	0x3e19c66c	0.15017098
68	0xbdeccf08	-0.115629256
69	0x3dd58ab9	0.1042685
70	0x3c29cfe9	0.010364511
71	0x3e2cc9b4	0.16873819
72	0xbdc28934	-0.09498826
73	0xbe009200	-0.12555695
74	0xbda32517	-0.07966059
75	0xbe1cc862	-0.15310815
76	0xbe2f3dde	-0.17113444
77	0x3e07876f	0.13235258
78	0x3e4a9ead	0.19787093
79	0xbd6bf664	-0.057608023
80	0xbd5d0f55	-0.0539697
81	0x3e0e0744	0.13869959
82	0xbdcbe834	-0.099563986
83	0xbe58f3c0	-0.21186733
84	0xbde9620d	-0.11395655
85	0x3d2fd9d4	0.042932346
86	0xbd690cc8	-0.056896955
87	0x3df80bda	0.121116355
88	0xbe1f6d19	-0.15568961
89	0xbe516013	-0.20446806
90	0xbd190ab0	-0.037363708
91	0x3e221124	0.15826851
92	0xbe28baa0	-0.16477442
93	0xbd099abc	-0.03359483
94	0xbcc96795	-0.024585525
95	0xbd40df22	-0.047087796
96	0x3d81193b	0.063036405
97	0xbe042e3d	-0.12908264
98	0x3dd7ea6c	0.10542759
99	0xbda7fd93	-0.08202662
100	0xbe0d2f8d	-0.1378767
101	0xbe0afd6e	-0.13573238
102	0xbdb66e8c	-0.08907804
103	0x3de38fc9	0.11111409
104	0x3dac7602	0.08420946
105	0xbdcaa415	-0.098945774
106	0xbd7d93f1	-0.061908666
107	0xbe0bcaa5	-0.13651522
108	0xbdfecf0b	-0.12441834
109	0xbd56d5df	-0.052450057
110	0xbdd1d24f	-0.10245191
111	0xbe007fa0	-0.12548685
112	0x3ccd9903	0.025097376
113	0x3e0eccd2	0.1394532
114	0xbc64783c	-0.013944682
115	0x3e094ac7	0.13407432
116	0xbe473c8d	-0.19456692
117	0x3dacd3ce	0.08438836
118	0xbd93391a	-0.07188626
119	0xbd0faec0	-0.035078764
120	0x3e1533b5	0.14570506
121	0xbd57deb5	-0.052702624
122	0x3da11c46	0.07866721
123	0x3e1279f5	0.14304335
124	0x3d4ae607	0.049535777
125	0xbdabfe3a	-0.08398099
126	0xbd4065e0	-0.046972156
127	0x3cc3ea0d	0.023915315
128	0xbaad4140	-0.0013218299
129	0xbc519761	-0.012792439
130	0xbdcece9b	-0.100980006
131	0xbe58acd7	-0.21159683
132	0x3db43050	0.087982774
133	0xbdb82613	-0.08991637
134	0x3dfb1333	0.12259521
135	0xbd1dc2a1	-0.03851569
136	0xbdda0907	-0.10646253
137	0x3ddf6466	0.10907821
138	0xbdab9425	-0.08377866
139	0xbde79658	-0.11307973
140	0x3dc5f001	0.09664918
141	0x3e19217d	0.14954181
142	0x3d45dfb4	0.048309043
143	0xbd12c5ce	-0.035833173
144	0xbd6982e2	-0.057009585
145	0x3de8769c	0.11350748
146	0xbda84a44	-0.0821729
147	0xbd160623	-0.036626946
148	0xbd61e037	-0.05514547
149	0xbdf6e959	-0.12056226
150	0xbd58f183	-0.0529647
151	0xbcc75511	-0.024332555
152	0xbe48b1a1	-0.1959901
153	0xbe694722	-0.22781041
154	0x3b4d6fdc	0.003134719
155	0xbda2781b	-0.079330646
156	0x3d205780	0.039145947
157	0x3dec0295	0.1152393
158	0x3d060caf	0.03272694
159	0xbe470eb3	-0.19439201
160	0xbe271611	-0.16317011
161	0x3e4e7899	0.20163192
162	0x3db44f13	0.08804145
163	0xbd3c2140	-0.045930147
164	0x3de3af1d	0.111173846
165	0x3dbf749d	0.09348414
166	0x3d380e15	0.044935305
167	0xbdea5a6e	-0.11443029
168	0x3dced23f	0.10098695
169	0xbd59f5df	-0.053212997
170	0x3e6688e7	0.22513162
171	0x3d84bb5b	0.06481048
172	0x3d2af0e1	0.041733626
173	0xbe0a217f	-0.1348934
174	0x3da58a73	0.08083048
175	0x3d868ac0	0.06569433
176	0xbe334673	-0.17507343
177	0xbe8096b2	-0.2511497
178	0x3e1410d6	0.14459547
179	0xbe5a652a	-0.21327654
180	0x3d977312	0.07394995
181	0xbdb42046	-0.08795218
182	0xbd66185f	-0.056175586
183	0x3d2fc58f	0.042913016
184	0xbe400ca3	-0.1875482
185	0x3c21bac0	0.009871185
186	0x3dd87430	0.10569036
187	0xbda3ae7e	-0.07992266
188	0x3d779cf2	0.06045241
189	0x3d8d070c	0.0688611
190	0x3bb64e92	0.0055635655
191	0x3e62b2ce	0.22138521

attn.out_proj.weight f4 [64, 64]
0	0xbe77c13e	-0.2419481
1	0xbe7398cc	-0.23788756
2	0xbe8acad5	-0.27107874
3	0x3da3638f	0.07977974
4	0x3eefb635	0.468187
5	0x3e86dd8c	0.26340902
6	0xbd61ef0e	-0.05515962
7	0xbd7a36a4	-0.061087266
8	0xbde9020c	-0.113773435
9	0x3e905601	0.28190616
10	0x3e8701de	0.26368612
11	0xbdc6180c	-0.09672555
12	0x3e2be123	0.16785102
13	0x3dba972e	0.091108665
14	0x3e8f55c3	0.27995118
15	0xbd1a28d6	-0.0376366
16	0xbd6cd68a	-0.057821788
17	0xbd78bcba	-0.06072686
18	0x3e9e4aa5	0.30916324
19	0x3d6033c0	0.054736853
20	0x3c8db7a3	0.017299479
21	0x3e05a140	0.13049793
22	0xbecf84e3	-0.40531072
23	0x3e93ad4d	0.28843156
24	0xbe97d547	-0.29654905
25	0x3d14b499	0.036305044
26	0xbe39426e	-0.18091747
27	0xbc7987a3	-0.015230092
28	0xbd2babed	-0.041912008
29	0x3ebe1665	0.3712646
30	0xbe87c56d	-0.2651781
31	0x3d00624f	0.031343754
32	0xbf097b0d	-0.53703386
33	0x3e0327e1	0.12808181
34	0x3dfad05e	0.12246774
35	0xbed42abe	-0.4143886
36	0x3e4485c7	0.19191657
37	0x3edceca3	0.4314929
38	0xbce5f57b	-0.028071156
39	0xbeba1c1d	-0.36349574
40	0x3ca39f7e	0.019973513
41	0xbea7372b	-0.32659277
42	0x3f02dbbd	0.51116544
43	0xbc6889a3	-0.014192971
44	0x3e34bd11	0.17650248
45	0xbd361b4e	-0.044459634
46	0x3f043449	0.5164228
47	0x3f193e58	0.59860754
48	0xbf1e12f5	-0.61747676
49	0xbbe4957f	-0.006975829
50	0x3f0745d8	0.5284095
51	0xbf04df90	-0.5190363
52	0xbe5abe87	-0.21361743
53	0xbf06c449	-0.5264326
54	0x3e9c80a7	0.30566904
55	0x3e78071a	0.24221459
56	0xbccc216b	-0.024918279
57	0xbd230ce2	-0.039807208
58	0xbebf36e0	-0.37346554
59	0x3d3c68f0	0.045998514
60	0xbd313c2d	-0.04327028
61	0x3f093c06	0.53607213
62	0xbd9326dd	-0.07185147
63	0x3e641837	0.22274862
64	0x3b76ffa6	0.0037689
65	0xbeef4d72	-0.46738774
66	0xbd177035	-0.036972243
67	0xbdc32085	-0.09527687
68	0x3e52f167	0.205999
69	0x3dc60f13	0.09670844
70	0x3e98508a	0.29748946
71	0xbe33ea5f	-0.17569874
72	0x3d95d48c	0.07315931
73	0xbcca1558	-0.02466838
74	0x3e3bfb7e	0.18357655
75	0xbdeb7718	-0.11497325
76	0xbe213847	-0.15744124
77	0x3dbcc6ad	0.09217582
78	0xbc772a27	-0.0150857335
79	0x3e75fde2	0.2402263
80	0x3eb18ba0	0.34676838
81	0xbe041a49	-0.12900652
82	0x3ea24eb3	0.31700668
83	0x3e069e4f	0.13146327
84	0x3de2d477	0.11075681
85	0xbe8d6bea	-0.27621394
86	0x3c8d9598	0.017283246
87	0x3eb262ed	0.348411
88	0xbe86de8f	-0.26341674
89	0xbd78fc00	-0.0607872
90	0x3d207c22	0.039180882
91	0x3e465677	0.19368921
92	0x3db5ecb8	0.08883041
93	0x3e554333	0.20826416
94	0x3e1d8e16	0.15386233
95	0xbcb228c5	-0.021747956
96	0xbe92b595	-0.2865416
97	0xbe71a0fa	-0.23596564
98	0xbe89b33c	-0.26894557
99	0x3e5b8273	0.21436481
100	0xbe702025	-0.23449762
101	0x3e401503	0.18758015
102	0xbe0262a1	-0.12732936
103	0x3e0db0c2	0.13836959
104	0x3e814945	0.25251213
105	0xbdf802d4	-0.121099144
106	0x3dd7efb9	0.1054377
107	0xbe77a306	-0.24183282
108	0xbd417008	-0.047225982
109	0x3db084bf	0.08619069
110	0x3ea09e05	0.3137056
111	0x3e5a567e	0.21322057
112	0xbe6a3da6	-0.2287508
113	0xbd8c6257	-0.06854694
114	0x3e2ed541	0.17073537
115	0xbe3be12d	-0.18347616
116	0xbe244a3b	-0.16043942
117	0xbe7123d1	-0.23548819
118	0xbdc1f2d8	-0.09470147
119	0x3e9091e8	0.28236318
120	0x3defc028	0.11706573
121	0xbe404e6a	-0.18779913
122	0xbce23f33	-0.027618026
123	0x3e48c5ae	0.19606659
124	0xbe2d5812	-0.16928127
125	0x3e3c6378	0.1839732
126	0xbe560568	-0.209005
127	0x3da31146	0.07962279
128	0xbe45ebf3	-0.19328289
129	0xbeea4cab	-0.45761618
130	0xbe999cef	-0.30002543
131	0xbf111e2e	-0.56686676
132	0x3e9726b6	0.29521722
133	0xbe2347db	-0.1594538
134	0x3e9b10a6	0.3028614
135	0xbdd9026d	-0.10596166
136	0xbe719d2a	-0.2359511
137	0x3e1330bf	0.14374064
138	0x3e63c264	0.22242123
139	0x3dec84a3	0.11548736
140	0x3c0d6932	0.008631038
141	0x3e846095	0.25854936
142	0x3e156a57	0.14591347
143	0x3d1da6f1	0.038489286
144	0x3e78e2b5	0.24305232
145	0x3d00183a	0.031273104
146	0x3e595936	0.21225438
147	0xbe755fd3	-0.23962335
148	0xbd030f13	-0.031996798
149	0xbe642079	-0.22278012
150	0xbeef31c4	-0.46717656
151	0x3ede8a43	0.4346486
152	0xbee31abb	-0.4435633
153	0xbee4a98c	-0.44660604
154	0xbe3f4bb0	-0.18681216
155	0x3e03789c	0.12838978
156	0x3d5c669c	0.053808793
157	0x3e9ba31d	0.30397883
158	0xbe9341b9	-0.2876108
159	0xbea3e251	-0.32008603
160	0xbe951908	-0.2912066
161	0x3e9cc502	0.30619055
162	0x3eb0a2b4	0.34499133
163	0xbe6dfe31	-0.23241498
164	0x3d524e00	0.051343918
165	0x3ebfd7c4	0.37469304
166	0x3e00c7b5	0.12576182
167	0xbe3d3c61	-0.18480064
168	0x3cb799aa	0.02241214
169	0xbecc2f31	-0.39879754
170	0x3ec1c042	0.37841994
171	0x3ea3f830	0.3202529
172	0xbd478515	-0.0487109
173	0xbd26df6b	-0.04074041
174	0x3eaef6ff	0.34172818
175	0x3ddb9f79	0.10723776
176	0xbf0700cd	-0.52735597
177	0xbee4d09e	-0.44690412
178	0x3eca1071	0.3946567
179	0xbf0c4151	-0.54787165
180	0x3e0d31c6	0.13788518
181	0xbea9ca13	-0.33161983
182	0x3e8755f9	0.2643278
183	0x3dfc4ad8	0.12318963
184	0xbe3a20f1	-0.18176629
185	0xbe4084df	-0.18800686
186	0x3e954b15	0.29158846
187	0x3b3140de	0.002704672
188	0xbe0c0c4c	-0.13676566
189	0x3e57af2d	0.21062918
190	0x3dae24d6	0.0850312
191	0x3f3a42a9	0.72757965
192	0xbd1bb985	-0.038018722
193	0x3e0e4b6e	0.13895962
194	0xbe4bff36	-0.19921574
195	0x3e707385	0.23481567
196	0xbd627fac	-0.05529754
197	0xbeab6787	-0.33477423
198	0xbdcb2a6b	-0.099202
199	0x3df37e1d	0.118892886
200	0xbe02f136	-0.12787327
201	0x3d913f55	0.07092158
202	0xbe02ae8a	-0.12761894
203	0xbdd985e1	-0.106212385
204	0x3e5bdacd	0.21470185
205	0x3e04787d	0.12936588
206	0xbcaee4b1	-0.021349283
207	0xbc3c4cda	-0.011492932
208	0xbe452b5b	-0.1925482
209	0x3e48c91c	0.19607967
210	0xbe98e4bb	-0.29862007
211	0x3d1a470f	0.037665423
212	0xbdd7c07e	-0.10534762
213	0x3dd85917	0.105638675
214	0x3de90233	0.113773726
215	0xbd863f98	-0.06555098
216	0xbd3dc93d	-0.046334494
217	0xbd0dd02e	-0.034622364
218	0x3e2efefe	0.1708946
219	0xbd3babf2	-0.045818277
220	0xbca0b923	-0.01961953
221	0xbe13df14	-0.14440566
222	0x3e25a4ea	0.16176191
223	0x3d918953	0.07106271
224	0x3d872965	0.06599692
225	0x3d843a5e	0.06456445
226	0xbce3b567	-0.02779646
227	0x3e496fb7	0.19671522
228	0xbd4602c0	-0.048342466
229	0xbd6b0ba2	-0.05738414
230	0xbdaa08b5	-0.08302442
231	0xbc2a8c6d	-0.010409457
232	0x3d886fcd	0.06661949
233	0xbe4d5d52	-0.2005513
234	0x3e9d1b7f	0.3068504
235	0xbdae2107	-0.08502393
236	0x3e400494	0.18751746
237	0x3d9d671d	0.07685683
238	0x3bf558af	0.0074873785
239	0x3c85ddd6	0.016341131
240	0xbde0a302	-0.10968591
241	0x3df6a2df	0.12042784
242	0xbd3a3a65	-0.045465846
243	0xbcc23674	-0.023707606
244	0xbe0efda7	-0.13963948
245	0xbd9166e6	-0.070997044
246	0xbe1bbf2d	-0.15209647
247	0x3cfd1f2f	0.030898659
248	0x3dae2a17	0.08504122
249	0xbe14ace6	-0.1451908
250	0xbddcfd7d	-0.107905366
251	0xba6eabfd	-0.0009104608
252	0xbd4bd08c	-0.049759433
253	0x3d41b6cf	0.04729348
254	0xbcead9ee	-0.02866837
255	0x3d4d447a	0.050114132

attn.out_proj.bias f4 [64]
0	0xbdb39679	-0.08768935
1	0x3cc31997	0.023815913
2	0xbd498a7a	-0.049204327
3	0xbd4788de	-0.04871451
4	0x3d77c394	0.060489252
5	0xbd5623fe	-0.05228042
6	0xbd95ff7c	-0.073241204
7	0xbdd39698	-0.10331458
8	0x3c3e037b	0.0115975095
9	0xbccc63ab	-0.02494987
10	0x3df965f1	0.12177647
11	0xbd93c34b	-0.072149836
12	0x3d466135	0.048432548
13	0x3d625fc0	0.055267096
14	0x3db1fa7a	0.08690353
15	0x3dd79353	0.10526147
16	0xbdd4c3e2	-0.10388924
17	0x3d5d9223	0.054094445
18	0xbc617b55	-0.013762315
19	0x3c816d70	0.015799254
20	0x3d23de48	0.040006906
21	0x3d737f6e	0.0594477
22	0xbd2a0f62	-0.041518576
23	0x3b4a835b	0.0030901048
24	0x3e08a8bf	0.13345622
25	0x3c41103b	0.011783655
26	0x3d9add09	0.0756169
27	0x3e1d0401	0.15333559
28	0xbd8127ea	-0.06306441
29	0x3b9fffb1	0.0048827757
30	0x3dc76eb2	0.0973791
31	0xbc965a24	-0.01835353
32	0xbdaa8e73	-0.08327951
33	0xbd7e091b	-0.062020402
34	0x3cfbf8bf	0.03075826
35	0x3d9a9dbe	0.07549618
36	0x3db8d4f9	0.09024996
37	0x3c22b51d	0.009930876
38	0x3b26d903	0.002545894
39	0x3db68092	0.089112416
40	0x3dcf8030	0.10131872
41	0x3d2bf8ab	0.041985195
42	0xbdc41b4d	-0.0957552
43	0xbb820521	-0.0039678966
44	0x3d9cbf65	0.07653693
45	0xba94c316	-0.0011349644
46	0xbdbf9543	-0.09354641
47	0xbc442755	-0.011972268
48	0xbda9d96e	-0.082934245
49	0xbd0961c3	-0.0335405
50	0xbdb82113	-0.089906834
51	0xbe1ace02	-0.15117648
52	0x3c424ea6	0.011859572
53	0x3d175800	0.036949158
54	0x3d08d991	0.033410612
55	0xbd453e1e	-0.048154943
56	0x3cbc1f0f	0.022964029
57	0x3d37691f	0.044777986
58	0xbd29aa96	-0.04142245
59	0xbb9a8f78	-0.00471681
60	0xbd7d9042	-0.061905153
61	0xbddd6ce2	-0.108117834
62	0xbc00f0bd	-0.0078698965
63	0x3daba9b6	0.08381979

norm1.weight f4 [64]
0	0x3fa3a38d	1.2784287
1	0x3f6d1a32	0.92618096
2	0x3fa305d2	1.2736151
3	0x3f4ed0c4	0.807873
4	0x3f6a11c5	0.91433364
5	0x3f8591e9	1.0435153
6	0x3f7dca72	0.9913703
7	0x3f873ea3	1.056599
8	0x3f8717b7	1.0554112
9	0x3f8ef94b	1.1169828
10	0x3f88b175	1.0679156
11	0x3f5eb7cd	0.8699921
12	0x3f823ca4	1.0174756
13	0x3f6674c7	0.9002194
14	0x3f8a39fc	1.0798945
15	0x3f8f38ce	1.118921
16	0x3f2e5648	0.68100405
17	0x3f5a245d	0.85211736
18	0x3f6bda7e	0.9213027
19	0x3f52ec4b	0.82391804
20	0x3f1d96ea	0.615584
21	0x3f92903a	1.1450264
22	0x3f56ee86	0.8395771
23	0x3f364f56	0.7121481
24	0x3f835c04	1.0262456
25	0x3f935833	1.1511291
26	0x3f52cb97	0.82341903
27	0x3f488f9e	0.7834414
28	0x3f8e4698	1.1115294
29	0x3f4ffa54	0.81241345
30	0x3f844619	1.0333892
31	0x3fa6a0de	1.3017843
32	0x3fbc957d	1.473312
33	0x3f8a7bea	1.0819066
34	0x3f8b7a1e	1.0896642
35	0x3fa9116f	1.3208445
36	0x3f8600a4	1.0468946
37	0x3f82cfa0	1.0219612
38	0x3f531c96	0.82465494
39	0x3f57f3f4	0.8435662
40	0x3fad70f7	1.3550099
41	0x3f7abc34	0.97943425
42	0x3f911487	1.133439
43	0x3f866e6d	1.0502449
44	0x3f9170ab	1.1362509
45	0x3f5d01ce	0.8633088
46	0x3f9a9844	1.2077718
47	0x3f926f6f	1.1440257
48	0x3f825611	1.0182515
49	0x3f900c17	1.125369
50	0x3f75cef4	0.9601891
51	0x3f95fb24	1.1717267
52	0x3f5e1818	0.86755514
53	0x3f5ce06b	0.86279935
54	0x3f8dbb43	1.1072773
55	0x3f45fa34	0.77334905
56	0x3f81665a	1.010936
57	0x3f67aa15	0.904939
58	0x3f53ecfe	0.82783496
59	0x3f904c74	1.1273332
60	0x3fdb0b92	1.7112906
61	0x3fc8df59	1.569316
62	0x3f857f00	1.0429382
63	0x3f988cd7	1.1917981

norm1.bias f4 [64]
0	0x3e440588	0.19142735
1	0x3e763c43	0.24046426
2	0x3dab8971	0.08375824
3	0x3dbbd757	0.09171932
4	0x3b8b4241	0.0042498414
5	0x3bfba939	0.007680085
6	0xbe683bfe	-0.22679135
7	0xbe2c3ee2	-0.16820863
8	0x3cee3e17	0.029082341
9	0xbbab64de	-0.00523053
10	0x3dd8fcd9	0.10595102
11	0x3d030100	0.031983376
12	0x3e515de4	0.20445973
13	0xbd607d23	-0.05480684
14	0xbe0e1726	-0.13876018
15	0x3e9fa48c	0.31180227
16	0xbd30caa4	-0.043162003
17	0x3de5f7dd	0.11228917
18	0x3e0457ee	0.12924168
19	0x3e4512d8	0.1924547
20	0x3e075e4a	0.13219562
21	0x3e2d68c9	0.16934504
22	0xbc911299	-0.017709063
23	0x3eaca31b	0.3371819
24	0x3dd515dc	0.1040456
25	0xbe250f07	-0.16119014
26	0xbe7a55c3	-0.24446778
27	0x3dc8048b	0.097664915
28	0xbe4edcc8	-0.20201409
29	0xba88ccfc	-0.0010437067
30	0x3cb41208	0.021981254
31	0xbd970a73	-0.0737504
32	0xbe868cb2	-0.26279217
33	0xbe9fa03c	-0.31176937
34	0x3cc4edfc	0.024039261
35	0x3e525f74	0.20544225
36	0xbdcb80e0	-0.0993669
37	0x3e2613fd	0.16218562
38	0x3da6fe12	0.08153929
39	0xbde765a1	-0.11298681
40	0xbe171ce0	-0.14757109
41	0x3d99758d	0.07493124
42	0x3e67a503	0.2262154
43	0x3c0fa0ac	0.0087663345
44	0xbe2174e3	-0.15767245
45	0x3e0cda8c	0.13755244
46	0xbc435e63	-0.011924359
47	0x3e0af34a	0.1356937
48	0xbe3d8e1c	-0.18511242
49	0x3ca13825	0.019680092
50	0xbe059ae9	-0.13047375
51	0xbeae3ce4	-0.3403083
52	0xbd95422f	-0.07288014
53	0xbe127071	-0.14300705
54	0x3da30af6	0.07961075
55	0xbe3b2505	-0.1827584
56	0xbc19b0e3	-0.009380552
57	0xbe2a2e52	-0.16619232
58	0x3b81f49c	0.0039659273
59	0xbbdb325c	-0.006689353
60	0x3e69edff	0.22844695
61	0x3e0e3a89	0.13889517
62	0xbd9a13d9	-0.07523317
63	0x3da5fc14	0.08104721

ff.0.weight f4 [128, 64]
0	0x3dc78036	0.09741251
1	0xbe9da1c7	-0.3078749
2	0xbc09c3bd	-0.008408484
3	0xbdfc9c30	-0.12334478
4	0xbe94d6a8	-0.2907002
5	0x3d90e6f7	0.07075303
6	0x3db448d3	0.088029526
7	0x3e0aed27	0.13567029
8	0xbdf5332a	-0.119726494
9	0x3e4b1c55	0.19835027
10	0xbe87136b	-0.26382002
11	0x3dd3542d	0.1031879
12	0xbd9272c8	-0.07150799
13	0x3d48c857	0.049019184
14	0x3de04064	0.109497815
15	0xbe9dcea1	-0.30821708
16	0xbd18610a	-0.03720192
17	0xbd286170	-0.04110855
18	0x3da7481e	0.08168052
19	0xbdb5844b	-0.088631235
20	0x3cfecf78	0.031104788
21	0xbe947f1e	-0.29003233
22	0x3dfa462a	0.12220414
23	0xbca5ad48	-0.020224229
24	0x3d365d22	0.044522412
25	0x3e438556	0.19093832
26	0x3d46b1b5	0.04850932
27	0x3d262a0b	0.04056744
28	0x3e972b74	0.2952534
29	0xbdedf9ad	-0.116198875
30	0xbc32c65f	-0.010911553
31	0xbd72869d	-0.05921041
32	0x3e08c9a5	0.13358171
33	0xbd21e314	-0.0395232
34	0x3e0e9081	0.13922311
35	0xbdcec266	-0.10095672
36	0x3d66f7b1	0.05638856
37	0x3a7659f5	0.000939756
38	0x3de925b7	0.11384147
39	0x3e104141	0.14087392
40	0xbd5d3028	-0.054001004
41	0x3e265f27	0.16247235
42	0xbd9224d1	-0.071359284
43	0x3dcf07c9	0.10108907
44	0x3da81d76	0.08208744
45	0x3d63e664	0.05563964
46	0x3c0e3545	0.008679693
47	0xbcb534d6	-0.02211992
48	0xbd8ef8ae	-0.06981026
49	0xbcde454b	-0.02713265
50	0xbda53c00	-0.08068085
51	0x3def4f0f	0.11685001
52	0x3ea5b2ba	0.3236292
53	0x3e36a071	0.17834641
54	0xbe41b05f	-0.18914936
55	0x3d8dc706	0.06922726
56	0x3dc8ada6	0.09798746
57	0x3d919c0e	0.07109843
58	0xbbc2c051	-0.005943336
59	0x3d0e840d	0.034793902
60	0xbe8ce0ca	-0.2751525
61	0x3ccab48f	0.0247443
62	0x3e20be98	0.15697706
63	0xbd0e8319	-0.034792993
64	0xbb91b827	-0.0044470015
65	0xbdad3f29	-0.084593125
66	0x3ec17071	0.37781098
67	0x3d15e998	0.036599725
68	0xbc83f44d	-0.016107703
69	0x3e1c5700	0.15267563
70	0x3bed5faa	0.00724407
71	0x3d7a5002	0.061111458
72	0xbd063463	-0.032764804
73	0x3bdbc689	0.006707017
74	0x3d89d70a	0.067304686
75	0xbe5b53f4	-0.21418744
76	0x3d11e624	0.03561987
77	0xbda1e541	-0.07905055
78	0xbd664a61	-0.056223277
79	0x3c86c304	0.016450413
80	0xbc83c97d	-0.016087288
81	0xbec2314e	-0.37928241
82	0xbe205a3b	-0.1565942
83	0xbd416b92	-0.047221728
84	0x3e3cf76c	0.18453759
85	0xbe747f01	-0.23876573
86	0x3ecee6fe	0.40410608
87	0xbd6ebf3a	-0.058287837
88	0xbe4b9cbf	-0.19884013
89	0x3e2d3add	0.16916986
90	0xbdc75f83	-0.09735014
91	0xbde67b26	-0.112539575
92	0xbb009695	-0.0019621004
93	0x3e2add0e	0.16685888
94	0x3e89f1b8	0.2694223
95	0x3d14eccc	0.03635864
96	0x3edd7c52	0.4325891
97	0x3d33e7d8	0.043922275
98	0x3ebc9e4f	0.3683953
99	0xbe2a3451	-0.1662152
100	0x3d01062c	0.031500027
101	0x3eb59146	0.35462397
102	0x3df7e6d1	0.121045716
103	0x3ddc5831	0.10759009
104	0x3e84fc4a	0.2597373
105	0x3ced0b5f	0.028936086
106	0xbe081e80	-0.13292885
107	0x3ed88dcf	0.4229569
108	0xbd08693a	-0.033303477
109	0xbe4493d9	-0.19197024
110	0x3e8112bf	0.25209615
111	0xbeb83877	-0.3598058
112	0x3e99d290	0.3004346
113	0xbeb1928e	-0.34682125
114	0xbe4cc9a5	-0.19998796
115	0x3b33a97e	0.0027414258
116	0xbc66d644	-0.014089171
117	0xbd9146c6	-0.07093577
118	0x3d95115f	0.07278704
119	0xbe0ca11a	-0.1373333
120	0x3e4447b7	0.19167982
121	0x3e5c2495	0.2149833
122	0xbbb0df8b	-0.005397742
123	0x3e82e81d	0.25567713
124	0xbea46984	-0.32111752
125	0xbe7715ab	-0.2412936
126	0x3d637db5	0.055539805
127	0xbf0150e8	-0.5051408
128	0xbdfdade3	-0.12386682
129	0xbe2be3bd	-0.16786094
130	0x3e56ff65	0.20995863
131	0x3e68dff3	0.2274168
132	0xbefadb86	-0.48995608
133	0x3d4a4edd	0.049391616
134	0xbe8d8d9c	-0.27647102
135	0x3eac1b3b	0.33614525
136	0xbd45a815	-0.048256
137	0xbdd5f9e1	-0.10448051
138	0x3ea94127	0.3305752
139	0xbdea8998	-0.11452025
140	0xbd8d3b91	-0.06896127
141	0x3da6d4ef	0.081460826
142	0x3e58d7c3	0.21176057
143	0xbd4f7d7c	-0.05065678
144	0xbdc2fa58	-0.095204055
145	0xbe333fd6	-0.1750482
146	0x3e6d1997	0.23154293
147	0x3e82964f	0.255053
148	0x3cac0446	0.020998131
149	0x3d1f9c6c	0.038967535
150	0x3e8a180c	0.2697147
151	0x3b6cc982	0.003613085
152	0xbef824f5	-0.48465696
153	0xbc4c2028	-0.0124588385
154	0x3dab47bf	0.08363294
155	0x3d21d285	0.039507408
156	0x3ef42a9f	0.47688767
157	0x3e001939	0.12509622
158	0x3d0ef6f5	0.034903485
159	0x3ea10ebe	0.3145656
160	0x3e9d1007	0.3067629
161	0xbe12b3e6	-0.14326438
162	0x3d95e74f	0.07319509
163	0xbf24c09d	-0.64356405
164	0x3e84a8a9	0.25909927
165	0xbdc7508f	-0.09732162
166	0xbe27c1e6	-0.1638256
167	0xbe8926c2	-0.26787382
168	0x3e11b2aa	0.14228311
169	0xbe86aa4e	-0.26301807
170	0x3e776c02	0.24162295
171	0x3ef42462	0.47684008
172	0xbea6e5b0	-0.32597113
173	0xbdf901aa	-0.121585205
174	0x3dd8427a	0.105595544
175	0xbde10db3	-0.10988941
176	0x3eee2c98	0.46518397
177	0xbf123929	-0.5711847
178	0xbeda2784	-0.42608273
179	0x3e0d292e	0.1378524
180	0x3e92fad4	0.28706992
181	0xbe6924b8	-0.22767913
182	0x3e171cd5	0.14757092
183	0xbe548dfc	-0.20757288
184	0x3f047aa0	0.5174961
185	0xbcb6c041	-0.02230847
186	0xbe11d7a7	-0.14242421
187	0x3f1d8f76	0.6154703
188	0xbeb033a2	-0.34414393
189	0xbf43a48d	-0.7642296
190	0xbda8208f	-0.08209335
191	0xbef34cd1	-0.47519544
192	0xbcb014b2	-0.021494243
193	0xbdb24875	-0.08705226
194	0x3ebc27cc	0.36749113
195	0xbe9e35fa	-0.30900556
196	0x3dbc8d24	0.09206608
197	0x3e697aca	0.22800747
198	0x3e93bba4	0.28854096
199	0x3ed1aa9c	0.40950477
200	0x3df01533	0.117227934
201	0xbc6e6388	-0.014550097
202	0xbe971a21	-0.29512122
203	0xbee1b3e8	-0.4408257
204	0xbdad5bb8	-0.084647596
205	0xbe837f49	-0.25683048
206	0x3da5ca1d	0.08095191
207	0x3da7fe21	0.08202768
208	0xbe1c5e0b	-0.1527025
209	0xbde27264	-0.110569745
210	0xbe96dc6b	-0.2946504
211	0xbd882944	-0.06648496
212	0xbb8a3372	-0.0042175585
213	0xbe43a937	-0.19107519
214	0x3d8005ec	0.062511295
215	0xbea25de0	-0.31712246
216	0xbd32b5bd	-0.04363035
217	0x3e4330c5	0.19061573
218	0xbdf3abc6	-0.118979976
219	0xbe8aae92	-0.27086312
220	0x3e28f063	0.1649795
221	0x3b3c3add	0.0028721609
222	0x3e9b64df	0.30350396
223	0xbe812826	-0.25225943
224	0x3edcb640	0.43107796
225	0x3e947692	0.28996712
226	0x3ed7392b	0.42035803
227	0xbdbaa510	-0.091135144
228	0xbd962897	-0.07331961
229	0x3e498eef	0.19683431
230	0x3d2bdd95	0.041959364
231	0x3e35ddc5	0.1776038
232	0x3de098d3	0.10966649
233	0xbe0a9505	-0.13533409
234	0xbeb0e092	-0.34546334
235	0xbde3031e	-0.11084579
236	0x3d8e6713	0.069532536
237	0xbe099f4c	-0.13439673
238	0x3eaa5d6f	0.3327441
239	0xbeca9e38	-0.39573836
240	0x3db34e79	0.08755202
241	0xbe0b367c	-0.13595003
242	0x3e6eea82	0.23331645
243	0xbccd1fdd	-0.025039608
244	0xbd5542b1	-0.052065555
245	0x3bb1ad4d	0.0054222704
246	0xbea424cd	-0.32059327
247	0xbbd50ad1	-0.0065015336
248	0x3da287b5	0.0793604
249	0x3dbf228d	0.09332762
250	0x3dc19d4b	0.094538294
251	0x3d32e79e	0.04367792
252	0xbea84cac	-0.32870996
253	0xbec5b584	-0.38615048
254	0xbcd62309	-0.026139753
255	0xbeab0852	-0.33404785

ff.0.bias f4 [128]
0	0xbe189eed	-0.14904375
1	0xbd9de461	-0.077095754
2	0xbc46250c	-0.012093794
3	0xbec4a761	-0.3840895
4	0xbe1b5a35	-0.1517113
5	0xbe5d4ee0	-0.2161212
6	0xbecba081	-0.39770892
7	0xbcbfbaa1	-0.023404421
8	0xbd937a1a	-0.072010234
9	0xbe35b204	-0.17743689
10	0xbd9f3dee	-0.07775484
11	0xbea59395	-0.3233916
12	0xbe9c23ab	-0.30495963
13	0xbee9d0e2	-0.45667177
14	0xbe961ce0	-0.29318905
15	0xbe909460	-0.282382
16	0xbe91e636	-0.2849595
17	0xbe20d54b	-0.15706365
18	0x3c6888c7	0.0141927665
19	0xbe6d7e7b	-0.2319278
20	0xbedfb1d5	-0.43690363
21	0xbe8736d2	-0.26409012
22	0xbe425a7e	-0.18979833
23	0xbee34e2d	-0.4439558
24	0xbe479273	-0.1948946
25	0xbe34ea1e	-0.17667434
26	0xbee66a2c	-0.45002878
27	0xbdb8411f	-0.08996796
28	0xbdee7d99	-0.116450496
29	0xbe29bb0f	-0.16575263
30	0xbef3a3cf	-0.47585914
31	0xbd80be67	-0.06286316
32	0xbec836f0	-0.39104414
33	0xbe39a9d6	-0.18131194
34	0xbecbd4f3	-0.39810905
35	0x3da75dfd	0.08172224
36	0xbe6561f1	-0.22400643
37	0xbf0d44aa	-0.551829
38	0xbead7608	-0.33879113
39	0xbe1356a2	-0.14388517
40	0x382ab38e	4.069838e-05
41	0xbc4f35ea	-0.012647131
42	0xbdd8ff6a	-0.10595591
43	0xbf04a432	-0.5181304
44	0xbe71937b	-0.23591416
45	0xbe0d1be1	-0.13780166
46	0xbd999041	-0.074982174
47	0xbe1b7726	-0.1518217
48	0xbbd4787e	-0.0064840904
49	0xbe13f1af	-0.14447664
50	0xbec54b0a	-0.38533813
51	0xbda0934b	-0.07840594
52	0xbc9239fe	-0.017849918
53	0xbdb4da67	-0.088307194
54	0xbe9d97ed	-0.30779973
55	0x3dde6167	0.10858422
56	0xbea0594a	-0.31318122
57	0x3e101f13	0.14074354
58	0xbee915d0	-0.45524454
59	0x3b8d0b7f	0.004304349
60	0xbd9fa3e8	-0.077949345
61	0xbe960be0	-0.29305935
62	0xbdc1593f	-0.094408505
63	0xbe86e95b	-0.2634991
64	0xbe9a5ea3	-0.30150327
65	0xbe7b042c	-0.2451331
66	0xbe6666f9	-0.22500218
67	0xbeb6311d	-0.35584345
68	0xbe35041b	-0.17677347
69	0xbe886a84	-0.26643765
70	0xbdb1a0dc	-0.086732596
71	0xbe8410c1	-0.25794032
72	0xbe5a302a	-0.21307436
73	0xbdeae4d2	-0.11469425
74	0xbe90932e	-0.2823729
75	0xbeca7ff0	-0.39550734
76	0xbd8bf483	-0.06833746
77	0xbdc04f76	-0.09390156
78	0xbe46650c	-0.19374484
79	0xbe958b32	-0.2920776
80	0xbda8ee04	-0.08248523
81	0x3e065456	0.13118109
82	0xbe41a74d	-0.18911476
83	0xbe958bc1	-0.29208186
84	0xbeaa8356	-0.33303326
85	0xbbe7265f	-0.0070541347
86	0xbe7bf19b	-0.24603884
87	0xbeada7d5	-0.33917108
88	0xbdc5e1b2	-0.096621886
89	0xbe07801b	-0.13232462
90	0xbe5601a8	-0.2089907
91	0xbe06e579	-0.13173474
92	0xbcbf675c	-0.023364715
93	0xbeae2b3e	-0.34017366
94	0xbdf9068e	-0.12159453
95	0xbe99f83a	-0.30072194
96	0xbe3a156b	-0.18172233
97	0xbe4683e0	-0.19386244
98	0xbe8cddb8	-0.27512908
99	0xbe18145d	-0.14851518
100	0xbeca327e	-0.39491647
101	0xbdd3d149	-0.10342652
102	0xbe88263d	-0.26591673
103	0xbd8b67c9	-0.06806905
104	0xbe50a6d7	-0.20376144
105	0xbe273a1d	-0.16330762
106	0xbe3a1d45	-0.18175228
107	0xbe7d00f6	-0.24707398
108	0xbe591603	-0.21199803
109	0xbeef18f7	-0.46698734
110	0xbe984296	-0.297383
111	0xbe101c09	-0.14073195
112	0x3ca2c71b	0.019870332
113	0x3d8d440e	0.06897746
114	0xbe53aace	-0.20670626
115	0xbd4865d7	-0.048925247
116	0xbeaf6b9a	-0.3426178
117	0xbe732967	-0.23746262
118	0xbe12dd84	-0.14342314
119	0xbe2f8faf	-0.17144655
120	0xbe4755a1	-0.19466259
121	0xbe2c1b3e	-0.16807267
122	0xbe250d37	-0.16118322
123	0xbeeb08ef	-0.45905253
124	0xbdf48f33	-0.119413756
125	0xbea2e550	-0.31815577
126	0xbe2b3d19	-0.16722526
127	0xbee3d683	-0.44499597

ff.2.weight f4 [64, 128]
0	0xbda258e8	-0.07927114
1	0xbe3d22bf	-0.18470286
2	0xbe3a00c5	-0.18164356
3	0xbdf3c7c8	-0.119033396
4	0xbd9a3fe0	-0.075317144
5	0xbd39bf6f	-0.04534858
6	0xbeb15b96	-0.34640187
7	0xbebbbf13	-0.36669216
8	0xbe973c6f	-0.29538295
9	0xbea5c688	-0.3237803
10	0xbcb9cc20	-0.022680342
11	0x3dcb9888	0.099412024
12	0xbe298b8a	-0.16557136
13	0x3d68247f	0.05667543
14	0xbe814a1d	-0.25251856
15	0xbd9524ad	-0.07282386
16	0xbe3c81fc	-0.1840896
17	0xbe48cf33	-0.1961029
18	0xbe0c6564	-0.13710552
19	0xbee4f130	-0.4471526
20	0xbcfd21a5	-0.030899832
21	0x3e520513	0.20509748
22	0xbc0f919e	-0.008762745
23	0xbe1494cb	-0.14509885
24	0xbe40e51a	-0.18837395
25	0x3e1d76c6	0.1537734
26	0xbe5ecd44	-0.2175799
27	0x3d82a000	0.06378174
28	0xbe09e3b2	-0.13465765
29	0xbdc48a0b	-0.09596642
30	0xbe32fff5	-0.17480452
31	0xbe62b365	-0.22138746
32	0x3e86455e	0.26224798
33	0x3c868107	0.016418947
34	0xbe781dc6	-0.24230108
35	0xbe30819d	-0.17236944
36	0xbe2a879c	-0.16653293
37	0x3dbef7de	0.09324621
38	0xbd8809a6	-0.06642465
39	0xbd7bfffd	-0.061523426
40	0xbe589a47	-0.21152602
41	0x3d846ff1	0.06466664
42	0xbe993e34	-0.2993027
43	0xbe86b5b2	-0.26310498
44	0x3df3106f	0.11868369
45	0xbd136887	-0.035988357
46	0x3d69291b	0.056923967
47	0xbe37a144	-0.17932612
48	0x3aa7c3b9	0.0012799419
49	0x3d9a5e98	0.075375736
50	0xbe079f83	-0.13244443
51	0xbd3755bb	-0.044759493
52	0x3d97e816	0.07417314
53	0x3dbc030b	0.09180268
54	0xbe03fb46	-0.12888822
55	0x3edf014b	0.43555674
56	0xbed75440	-0.42056465
57	0x3ee9d833	0.4567276
58	0x3d5f4caa	0.054516472
59	0x3baf0f4b	0.0053423992
60	0xbe879ba9	-0.26485947
61	0xbe0ab181	-0.13544275
62	0x3db56e7e	0.08858965
63	0xbe1dabd8	-0.15397584
64	0xbf00d1a5	-0.5031989
65	0x3d6e3ea8	0.058165222
66	0xbdd122c4	-0.10211709
67	0xbdfb6467	-0.122750096
68	0xbe15a1a9	-0.1461245
69	0x3cdc710d	0.026909376
70	0xbdb6d34f	-0.08927023
71	0xbe8903de	-0.26760763
72	0xbe890870	-0.2676425
73	0xbefe27f8	-0.4963987
74	0x3eab7373	0.33486518
75	0xbe25704f	-0.16156124
76	0xbdb54171	-0.088503726
77	0xbdd1c020	-0.10241723
78	0xbe305d0e	-0.17222998
79	0xbe638d3f	-0.2222185
80	0xbe5ddd4c	-0.2166645
81	0x3eb87fa6	0.36034888
82	0xbe65f51b	-0.22456782
83	0xbd00335e	-0.031298988
84	0xbde0aa2a	-0.10969956
85	0xbd824c95	-0.06362263
86	0xbda902e0	-0.082525015
87	0x3cb694b6	0.022287708
88	0x3c48b630	0.012250468
89	0xbddc0a04	-0.10744098
90	0x3d517399	0.051135633
91	0x3e08bb1e	0.1335263
92	0xbdc3d976	-0.09562962
93	0xbe2fab2f	-0.17155145
94	0xbdd30531	-0.103037246
95	0xbd65a551	-0.05606586
96	0xbdceaf10	-0.10091984
97	0xbe94538b	-0.28969988
98	0xbe9d43b6	-0.30715722
99	0xbdab7b9c	-0.08373186
100	0xbf261e68	-0.64890146
101	0xbd747c9a	-0.05968914
102	0xbddd22fd	-0.10797689
103	0xbe91cf4f	-0.28478476
104	0x3e176f59	0.1478857
105	0x3d4443ac	0.0479161
106	0xbe11b770	-0.14230132
107	0xbd2a05ea	-0.041509546
108	0x3e5823c1	0.21107389
109	0xbdd3d8d9	-0.10344095
110	0xbea65b3c	-0.3249148
111	0xbea75574	-0.32682383
112	0xbe21a18e	-0.15784284
113	0xbebf331b	-0.37343678
114	0xbdc87f72	-0.09789933
115	0x3dec234a	0.11530168
116	0xbdb7a0d6	-0.08966224
117	0x3cd8f5a8	0.026484326
118	0xbea712d1	-0.32631543
119	0xbe336b25	-0.17521341
120	0xbec4c9d6	-0.3843524
121	0xbe2e0b99	-0.16996612
122	0x3df8da49	0.121510096
123	0xbeb70a04	-0.3574983
124	0xbc83ac03	-0.016073233
125	0xba9cd0e7	-0.0011964113
126	0x3ccdaf0f	0.025107889
127	0xbe653f94	-0.22387534
128	0x3d89e698	0.067334354
129	0xbe5f0c77	-0.21782099
130	0xbd43a0fc	-0.04776095
131	0xbe25b51f	-0.16182373
132	0xbda74fb0	-0.08169496
133	0xbd95251c	-0.07282469
134	0x3cee6e27	0.02910526
135	0xbd19a1ff	-0.037508007
136	0x3dcea8b2	0.1009077
137	0x3d21c7a3	0.03949703
138	0x3e9a157d	0.3009452
139	0xbecf5890	-0.40497255
140	0xbdf45c92	-0.11931719
141	0x3e1650ac	0.14679211
142	0xbd50e1df	-0.050996657
143	0x3d978ad0	0.07399523
144	0x3d7a5621	0.061117295
145	0xbd04bf76	-0.032409154
146	0x3b9f8744	0.00486842
147	0x3d8ca78e	0.06867896
148	0xbd48498a	-0.048898257
149	0xbecf37b0	-0.40472174
150	0x3ca9c7e9	0.020725207
151	0x3d82ca4d	0.06386242
152	0x3cb9ff8e	0.022704866
153	0x3d24036e	0.040042333
154	0x3dec2e43	0.11532261
155	0xbd0c5e46	-0.034269594
156	0x3d5c1f37	0.053740706
157	0xbd6a5059	-0.05720553
158	0x3db5eee5	0.08883456
159	0x3d1670e9	0.036728773
160	0x3d95b001	0.07308961
161	0xbe043836	-0.12912068
162	0x3e000f91	0.12505938
163	0x3d80fa08	0.0629769
164	0x3ceb87c0	0.028751254
165	0xbe6ac5fa	-0.22927085
166	0x3e300f10	0.17193246
167	0x3e862f27	0.2620785
168	0x3cad3836	0.021144968
169	0x3e0895df	0.13338421
170	0x3df6acf1	0.12044705
171	0xbdfa4272	-0.12219705
172	0x3c908fe0	0.01764673
173	0xbd7ae85d	-0.061256755
174	0x3b6d4020	0.0036201552
175	0xbe0f8bbd	-0.1401815
176	0x3db57cbc	0.08861682
177	0x3cc94f84	0.024574049
178	0x3df11024	0.11770657
179	0xba850357	-0.001014809
180	0x3f032df9	0.51242024
181	0xbedbba7c	-0.42915714
182	0xbe01fcbc	-0.12694067
183	0x3dc7b418	0.09751147
184	0x3d40e5a0	0.047093987
185	0x3d312793	0.04325063
186	0xbe85a808	-0.2610476
187	0x3c35c557	0.011094413
188	0x3d864208	0.06555563
189	0xbdc331ec	-0.09531006
190	0xbd40847c	-0.047001347
191	0x3ba58971	0.0050517847
192	0x3c8b0d1e	0.016974028
193	0x3e3de5ee	0.18544742
194	0x3d9a826b	0.075444065
195	0xbe84a0ef	-0.25904033
196	0x3db215cd	0.086955644
197	0x3ea0f0c7	0.314337
198	0x3e132035	0.14367755
199	0x3e8e50a7	0.27795908
200	0x3d849fef	0.064758174
201	0xbc684100	-0.014175653
202	0x3e8b5a3f	0.2721729
203	0x3e7c7916	0.24655566
204	0x3e9fb162	0.3119002
205	0xbd6a6720	-0.057227254
206	0x3d6a9ec8	0.05728033
207	0x3e614e19	0.22002448
208	0x3c83e385	0.0160997
209	0x3e29a818	0.16568029
210	0x3cd072ed	0.025445426
211	0x3d85e3f0	0.06537616
212	0xbdbad3cf	-0.091224305
213	0xbda20fbf	-0.079131596
214	0xbd9835dd	-0.074321486
215	0x3e0a57df	0.13510083
216	0x3e03147a	0.1280078
217	0xbda610ee	-0.08108698
218	0x3dcc216c	0.09967312
219	0x3ca2be34	0.019866087
220	0x3e454a93	0.19266729
221	0xbd33bb8b	-0.043880027
222	0x3ce23679	0.027613865
223	0x3dd6a4bd	0.1048064
224	0x3e39bcb2	0.18138388
225	0xbca8eb95	-0.020620147
226	0x3e360358	0.17774713
227	0xbde6d821	-0.11271692
228	0x3e087a9b	0.1332802
229	0x3e746df3	0.23870067
230	0x3e5a9045	0.21344097
231	0x3e674293	0.2258399
232	0xbe3ee229	-0.18640961
233	0x3edde997	0.43342277
234	0xbb231626	-0.0024885028
235	0x3d10aa25	0.035318512
236	0xbce6bfba	-0.028167594
237	0x3e4d2781	0.20034601
238	0xbd89c475	-0.06726924
239	0x3d5ca6ee	0.053870134
240	0x3e9b961d	0.30387965
241	0xbde3dff9	-0.11126704
242	0x3e4465fe	0.19179532
243	0xbe15bfa4	-0.14623886
244	0x3c66d64c	0.014089178
245	0xbdacce30	-0.08437765
246	0x3e100613	0.14064817
247	0x3e0067f3	0.12539653
248	0xbe50e50a	-0.20399871
249	0x3df1bee4	0.118039876
250	0x3cb88b35	0.022527317
251	0xbd157d1c	-0.036496267
252	0x3d6ee781	0.058326248
253	0xbe333579	-0.17500867
254	0x3e02b792	0.12765339
255	0x3e7dd30f	0.24787544

ff.2.bias f4 [64]
0	0x3d715840	0.058922052
1	0x3db16faa	0.08663876
2	0x3b2017c1	0.002442822
3	0xbcf5caeb	-0.030003985
4	0x3e0ca2f2	0.13734034
5	0xbd7834d3	-0.060597252
6	0xbd147123	-0.036240708
7	0xbe344aac	-0.1760661
8	0x3c6d41fd	0.014481065
9	0x3caf90b5	0.021431306
10	0xbd065a2b	-0.032800835
11	0x3cfa5485	0.03055788
12	0x3e12ab93	0.14323263
13	0x3e2b3add	0.16721673
14	0x3d53a136	0.051667415
15	0x3db1e035	0.08685342
16	0xbde25ccf	-0.11052858
17	0x3d965b69	0.07341654
18	0x3b1515a2	0.002274849
19	0x3d3807b7	0.044929232
20	0xbd647542	-0.05577589
21	0x3e87636e	0.26443046
22	0xbe0d0ce1	-0.13774444
23	0xbdf89a63	-0.12138822
24	0xbd23e5e2	-0.040014155
25	0xbd39b02c	-0.045334026
26	0x3d98cfc5	0.07461504
27	0x3e47b642	0.1950312
28	0xbd7fb239	-0.062425826
29	0x3c20a6db	0.009805406
30	0xbe1a8acd	-0.15092011
31	0xbd3fc173	-0.046815347
32	0xbe398b14	-0.1811946
33	0xbe32f6e6	-0.17476997
34	0xbde4857a	-0.11158271
35	0x3e64aae3	0.22330813
36	0x3d9b123a	0.07571836
37	0x3e043250	0.12909818
38	0xbd955ba4	-0.0729287
39	0x3cf3438f	0.0296953
40	0x3cac4de3	0.021033233
41	0x3d9130f4	0.07089415
42	0x3d6cfe19	0.057859514
43	0xbd0b31e5	-0.03398313
44	0x3c831f6e	0.016006198
45	0x3d54a95f	0.051919337
46	0xbe0f89fc	-0.1401748
47	0x3e37e050	0.17956662
48	0x3ccaad00	0.024740696
49	0x3e0c80ab	0.13720958
50	0xbd91513d	-0.07095573
51	0xbdd16c50	-0.10225737
52	0xbe5cf026	-0.21575984
53	0xbd733dcf	-0.059385117
54	0x3daa80da	0.08325358
55	0x3d1dbeb0	0.038511932
56	0xbd943a45	-0.072376765
57	0xbd833fb4	-0.06408635
58	0xbdb6a2ab	-0.08917745
59	0xbd0fbcbd	-0.035092104
60	0x3e378594	0.1792205
61	0x3dd0ccd2	0.101953164
62	0x3c0e0387	0.008667833
63	0x3e16daf0	0.14731956

norm2.weight f4 [64]
0	0x3fa4a566	1.2862976
1	0x3f43dd39	0.76509434
2	0x3f4a6c55	0.7907155
3	0x3f1e5786	0.618523
4	0x3f65aef5	0.8972009
5	0x3f82bad6	1.0213268
6	0x3f48686a	0.78284323
7	0x3f82aef9	1.0209647
8	0x3f444db9	0.76681095
9	0x3f95254c	1.1652007
10	0x3fa6b596	1.3024166
11	0x3f6242a0	0.8838291
12	0x3f3aee30	0.73019695
13	0x3f42c8f3	0.76087874
14	0x3fa91585	1.3209692
15	0x3f54abcd	0.8307465
16	0x3f674a11	0.9034739
17	0x3f75f8c2	0.960827
18	0x3f33332b	0.6999995
19	0x3f58b737	0.84654564
20	0x3f437d11	0.7636271
21	0x3f810967	1.0080994
22	0x3f92ba8c	1.146318
23	0x3f4813af	0.78155035
24	0x3f84f94f	1.0388583
25	0x3f83cd35	1.0296999
26	0x3f57b056	0.8425344
27	0x3f7f50bd	0.9973257
28	0x3f73f1a9	0.9529062
29	0x3f89f3c6	1.0777519
30	0x3f49ec65	0.78876334
31	0x3f8a0e53	1.0785621
32	0x3f58b968	0.8465791
33	0x3f64bcbe	0.893505
34	0x3f7bab76	0.98308504
35	0x3f822f35	1.0170656
36	0x3f88e9ce	1.0696352
37	0x3fdfbe20	1.7479897
38	0x3f9e57a8	1.23705
39	0x3f138c53	0.5763599
40	0x3f965ea9	1.1747638
41	0x3f63ed70	0.89034176
42	0x3f2c44d8	0.6729255
43	0x3f4ee105	0.808121
44	0x3f88af60	1.067852
45	0x3f543913	0.8289959
46	0x3faf39a8	1.368947
47	0x3f315aaf	0.69279
48	0x3f774b79	0.9659954
49	0x3f50db5f	0.81584734
50	0x3f4b30b5	0.79371196
51	0x3f53eee9	0.8278642
52	0x3f8ced52	1.1009924
53	0x3f53f257	0.82791656
54	0x3f654a2e	0.89566314
55	0x3f35a18f	0.70949644
56	0x3f1ef6b1	0.6209517
57	0x3f6c2852	0.92249024
58	0x3f767b6d	0.9628208
59	0x3f70b3d7	0.94024414
60	0x3fafc7e0	1.3732872
61	0x3fab7e55	1.3397928
62	0x3f8dd51b	1.108066
63	0x3f86084b	1.0471281
