gesture_model.pth (torch, 133100 bytes, 6 tensors)

conv1.weight f4 [64, 34, 3]
000000 ab e0 86 3d 1f 81 94 3d fe 07 06 bd b3 a7 a6 3d
       0.06585821 0.072511904 -0.032722466 0.08137455
000010 7f 75 ff bc 2e 58 2f 3c b1 26 6b bd 3a 69 49 3d
       -0.031183956 0.010702176 -0.057409946 0.049172617
000020 3a a3 a0 3d 8f 46 a9 bd 46 0e 9c 3d 60 7b 11 3c
       0.07843633 -0.08265411 0.0761991 0.008879513
000030 e0 ab 7c 3d f1 c8 0f 3b 7b 34 16 3d 7f d1 cd bc
       0.06168735 0.0021939839 0.036671143 -0.02512431
000040 79 ef 85 3d 9d 61 78 3b 20 4e 5d bd f8 be 91 3c
       0.065398164 0.003789998 -0.054029584 0.017791256
000050 ff 8f 58 bd d7 fc b6 bc ac 58 50 bd 47 c6 62 3d
       -0.0528717 -0.02233736 -0.050865814 0.055364873
000060 16 9b b9 bd 9b 8d 6d bd ad cd 25 bd 07 d4 94 bd
       -0.090627834 -0.057996374 -0.04047935 -0.072670035
000070 db 2a 63 bb 42 40 e2 bd 48 a3 a4 3d d0 25 be bd
       -0.0034662995 -0.110474125 0.08038956 -0.09284556
000080 19 5b 8b 3d 08 3c 9c 3b a5 53 33 bd 34 b0 4c 3d
       0.06804485 0.0047678985 -0.04378094 0.049972728
000090 fe c4 03 3c 4f ce 95 3d 23 f8 85 3b 74 88 2e bd
       0.008042572 0.07314741 0.004088418 -0.0426106
0000a0 f9 65 79 3c 4d 09 1b bd c3 f0 e4 3c 2d 65 99 3d
       0.015222066 -0.037850667 0.027946835 0.07490001
0000b0 95 56 2d 3d 8d 6a 77 bd 1b ab 23 3d 79 a9 95 ba
       0.0423189 -0.06040435 0.0399581 -0.0011418305
0000c0 82 fd 74 3d 00 8c 4f bd 93 26 b7 bd 6f a8 2e bd
       0.059812076 -0.050670624 -0.08942904 -0.0426411
0000d0 75 df a3 bd 57 a3 99 3d ca 8f 98 3c 13 74 01 3d
       -0.080016054 0.07501858 0.018623251 0.031604838
0000e0 4c ec be 3c be 77 6e bc 1b 90 84 3d 1b 5f a9 bd
       0.023306035 -0.014554916 0.064727984 -0.08270093
0000f0 55 f1 5c 3c 86 d6 7b bd b0 ef 12 3d 8d a4 29 bd
       0.013485272 -0.061483882 0.035873115 -0.041416693
000100 3b 0a ac 3c cd c1 ff bc 53 40 c4 3d bb 57 3b bd
       0.021000972 -0.031220341 0.09582581 -0.045737963
000110 4e 34 37 bd ab 34 3a bd 35 b8 d0 3d 80 5a 41 3d
       -0.044727616 -0.045460384 0.10191385 0.04720545
000120 13 ad e4 3d 7c 87 87 bd 88 b8 a7 bd 5f 32 7a bd
       0.11165824 -0.066176385 -0.081894934 -0.061083194
000130 61 41 51 bd 88 b2 66 3d 0a 39 11 3d 27 7f a8 3d
       -0.05108774 0.056322604 0.035454787 0.082273774
000140 9a 71 51 bd 30 3d 8a bd 02 2f 57 3d 53 ee 23 bd
       -0.05113373 -0.06749952 0.052535065 -0.040022206
000150 8e 25 76 3d 3c 7b c0 bc 62 00 68 3d 28 8e 9d bd
       0.06009441 -0.023496263 0.05664099 -0.0769313
000160 01 ab 4c bd 4c 4b f7 3c 90 7a ab 3c ec cd ce bc
       -0.04996777 0.030187272 0.020932466 -0.025244676
000170 9a be 71 3d 6d da 89 3d 61 0d 93 bd 98 84 58 bd
       0.059019662 0.067311145 -0.07180286 -0.052860826
000180 11 ae b9 3d c2 d9 08 bd 7c c7 0f bd 03 36 c4 bd
       0.09066404 -0.033410795 -0.035102352 -0.095806144
000190 32 41 68 bd 7c 9f ca 3c e8 30 d3 bc b3 88 93 bd
       -0.0567028 0.024734251 -0.025780156 -0.07203808
0001a0 64 87 d2 3b 25 6b a1 bd 19 7a aa bd 4c 66 4d bd
       0.006424831 -0.07881764 -0.083240695 -0.050146386
0001b0 03 ed eb bd 98 4f 80 bd f7 8e cc 3d 83 53 b3 ba
       -0.11519816 -0.06265181 0.09988206 -0.0013681505
0001c0 f3 13 07 3d 61 09 b5 bd 94 e2 9d bd 24 9a 06 bd
       0.03297801 -0.088396795 -0.07709232 -0.032861844
0001d0 46 5e a1 3c a1 c8 c2 bd f9 f2 22 bd 7b 9a 56 bd
       0.019698273 -0.09510923 -0.039782498 -0.052393418
0001e0 5b e1 ab bc 52 f5 20 bd a3 23 1d bc ef 2e ac bd
       -0.020981481 -0.039296456 -0.009591016 -0.084073894
0001f0 7f 6f 8d bd 6a e0 71 bd ba 6c 41 bd 2a ee a3 bd
       -0.06906032 -0.05905191 -0.04722283 -0.080044106
000200 db 5a b5 3d 01 b8 00 bd 07 f1 ae 3d 1b b7 1a 3d
       0.0885522 -0.03142548 0.08542066 0.03777228
000210 de 0a a4 bd 67 87 9c 3d fc a7 9d bc 81 62 0e bd
       -0.08009885 0.076430134 -0.01924514 -0.03476191
000220 4f c2 9c bd 75 04 bf bd 86 e3 51 3d de 8f 55 bb
       -0.07654249 -0.09327022 0.051242374 -0.0032586972
000230 fe 7d 67 3d 2b 86 71 bd be f6 ae 3d f0 83 7d bd
       0.05651664 -0.058965843 0.08543156 -0.061893404
000240 93 91 05 bc bc f8 03 3d bf 57 83 3d 98 22 ac 3d
       -0.008152383 0.032219633 0.064132206 0.08405036
000250 30 a7 ca 3d 0a f8 8d bd cd b7 85 3c 3a b9 40 bd
       0.0989517 -0.06932075 0.016322995 -0.047051646
000260 f0 bd 86 bc 28 60 ac bd f6 62 b7 3d 6e 76 99 bd
       -0.016447991 -0.08416778 0.08954422 -0.07493292
000270 1a c0 6e 3d 7e d4 40 3d 93 df 39 3d 19 1b 6d bd
       0.05828867 0.04707765 0.045379233 -0.05788717
000280 7d 07 b3 3d 3b 65 a1 3c da c7 a4 3c 3b 3b ac bd
       0.08741663 0.01970159 0.020114828 -0.08409735
000290 13 29 40 3d 1c 9d 11 bc ce ad 0b bd cc 20 ba 3d
       0.04691417 -0.008887555 -0.0341013 0.09088287
0002a0 97 2a b6 3c fd bb 7f bd 1b ce 2e bd a0 da 8a bb
       0.022237105 -0.06243514 -0.042677026 -0.004237488
0002b0 be bd 42 3d 30 56 92 bc 93 79 7e bd 82 c9 21 bd
       0.047544234 -0.017863363 -0.06212766 -0.039498813
0002c0 55 7e 97 bd 92 20 f3 3c d5 82 91 3d 48 e8 be bd
       -0.07397143 0.029678617 0.07105032 -0.09321648
0002d0 a0 62 bc 3c e2 82 51 3d dc 14 93 3c 76 6e 10 bd
       0.022996247 0.05115021 0.017954282 -0.035261594
0002e0 62 ae 53 3d 22 21 55 3d ce a6 17 3d 60 88 8e bc
       0.051679976 0.05203355 0.03702431 -0.017399013
0002f0 b8 c9 d6 bc f8 8c 2d 3c 0c 4a 8f bc 9c b7 f1 bc
       -0.026219234 0.010592692 -0.017491363 -0.029506497
000300 ab 9e 81 3d 5d 45 ae 3d 68 99 20 bc f4 9b b5 bc
       0.06329092 0.08509324 -0.0098022 -0.02216909
000310 40 61 bd 3a 70 b9 c1 bb 28 01 c3 3c 3c 4e e3 3c
       0.0014448538 -0.0059119985 0.023804262 0.027747266
000320 a6 2d b8 bd 28 ab 15 bd d5 c4 aa 3d 5a fd 1d 3d
       -0.08993082 -0.03654018 0.08338324 0.038571693
000330 ca 86 b3 3b 94 c8 29 bd 43 26 ae bd e5 9a b6 bd
       0.0054787146 -0.04145105 -0.085033916 -0.089162625
000340 8b 39 ed bc 58 55 81 3c 61 cb b2 3d 2b 64 93 3d
       -0.028958103 0.015787765 0.08730198 0.0719684
000350 8a c7 16 be d6 e3 86 bd 87 9f 9f bc 87 d0 34 3d
       -0.14724556 -0.06586425 -0.019485248 0.04414418
000360 5c 55 c2 3c 7f 2c 06 bc 0d 09 73 3c 4b 4b 37 bd
       0.023722343 -0.00818932 0.014833701 -0.04474954
000370 8e db 8a bd 79 74 65 3d ef 6a 36 bc 78 e1 e2 3c
       -0.06780158 0.05601928 -0.011133893 0.027695403
000380 c2 01 15 be 11 a5 65 3d f3 fd a6 3d c5 f4 43 bc
       -0.14551452 0.056065623 0.08153906 -0.011960213
000390 a7 bd 48 bd 0e 1d 8f bd 6f ae e1 bd 94 3a 98 3d
       -0.04900899 -0.069879636 -0.11019599 0.07433048
0003a0 b9 db 41 3d 07 cc 8b 3d 54 72 82 3d f1 c5 14 3d
       0.047328684 0.068260245 0.063694626 0.036321584
0003b0 fa c9 80 3b 5b 9d a0 bd e3 41 b0 bd f8 1c b7 bd
       0.0039303275 -0.07842513 -0.08606317 -0.08941072
0003c0 d2 9e 48 3d 54 28 46 bd e3 ca 2a bd 18 c7 62 bd
       0.048979588 -0.048378304 -0.041697394 -0.05536565
0003d0 3a c1 ad bc d3 88 bd bd 11 a1 c0 bd cc 1a 4b 3d
       -0.021210302 -0.09254613 -0.09405721 0.049586102
0003e0 d4 bc 2d bd c9 ed e4 3c 2e 5d ab bc 1e ec 9f bd
       -0.04241641 0.027945416 -0.020918455 -0.07808708
0003f0 12 f0 0f bc 78 da 03 bd 23 91 9f bd 2a 3e b1 bd
       -0.008785265 -0.03219077 -0.077913545 -0.08654435

conv1.bias f4 [64]
000000 51 56 a4 3d b6 04 51 3b 32 dc 38 3d bd 21 c1 bc
       0.08024276 0.0031893677 0.04513187 -0.023575658
000010 43 1f 85 bc 0c b0 01 bc 4d 7d 2d 3c 9c a2 11 3d
       -0.016250258 -0.007915508 0.010588956 0.035555467
000020 18 3d 95 3d e4 73 67 3d 46 f0 1e bd a6 6c a4 3d
       0.07287043 0.056507006 -0.03880336 0.080285355
000030 58 5a 6d 3d 64 72 02 3d a2 d4 4f 3c 23 b4 84 bd
       0.057947487 0.031847373 0.012684973 -0.06479671
000040 1d a6 65 bd 6f 1c 59 bc 83 22 a5 bd 5d 20 03 3d
       -0.05606662 -0.013251408 -0.08063223 0.032013286
000050 a2 89 b6 bd ee 8f c5 bd ef d2 53 bd 53 a2 5e 3d
       -0.0891297 -0.09646593 -0.051714834 0.054354023
000060 98 36 89 3d 4b 15 c3 bd b7 4c 69 bd 05 14 c3 3c
       0.06699866 -0.09525546 -0.056957927 0.023813257
000070 47 06 a9 bc d8 e7 b2 bd f7 2e 03 3d a7 67 a4 bd
       -0.020632876 -0.08735627 0.03202721 -0.080275826
000080 0a 40 a7 3c 6c 5b 0f 3d 82 e1 b1 3d f9 73 a4 bd
       0.020416278 0.034999296 0.0868559 -0.080299325
000090 77 2d 97 3d 93 1b 4a 3c 9e 17 a6 3d 55 d9 bb 3d
       0.073817186 0.012335676 0.08109973 0.09172312
0000a0 b9 6e 7a bc 4a 18 31 bc e8 fc b5 bc 05 4d ae 3d
       -0.015285187 -0.010809014 -0.022215322 0.08510784
0000b0 de ee 47 bd 83 69 8a 3d 6f b7 f8 3c d8 65 b7 3d
       -0.048811786 0.06758406 0.030360905 0.08954972
0000c0 83 33 90 3d 37 0d 9b 3d 7d 96 b7 bd 16 6c 5c bd
       0.07041075 0.0757088 -0.0896425 -0.053814016
0000d0 51 7f 92 bd 85 d2 63 3d 90 ee 53 3c 38 c7 02 3d
       -0.0715319 0.05562069 0.012935296 0.03192827
0000e0 17 e1 f2 3c b9 1f 5d ba 32 7f 0b 3d 46 a2 60 bd
       0.029648347 -0.0008435208 0.03405685 -0.054842256
0000f0 94 dc 8f 3d 56 8a c2 bd ec 53 c5 bd b7 d8 9f 3c
       0.07024494 -0.09499042 -0.096351475 0.019512517

conv2.weight f4 [128, 64, 3]
000000 4b a2 84 3d db 06 f4 bc 24 cc 84 3d ad ec 16 bd
       0.064762674 -0.029788425 0.06484249 -0.036846805
000010 ef d0 86 bd ae 98 91 bc e0 29 24 3d 68 1c ff bd
       -0.0658282 -0.017772999 0.040078998 -0.1245659
000020 bc f7 11 bd a0 40 ad bc 45 6e bc bc 9d d7 aa bc
       -0.03563665 -0.02114898 -0.0230018 -0.020854766
000030 d4 50 0a bd b8 5e bb 3d 86 bf 5a bc 30 ac f4 bc
       -0.03376849 0.091489255 -0.013351327 -0.029867262
000040 33 e8 9b bc 34 65 82 3d e2 39 b9 3c f7 98 63 3c
       -0.01903162 0.06366959 0.022610608 0.01389145
000050 0e e3 fb bc bd fb 0d 3d eb d7 3d 3c c8 56 61 3d
       -0.030747917 0.034663904 0.011587123 0.0550144
000060 01 dc 32 3c 15 e2 41 3d 3e d6 35 3d e1 c5 a2 3c
       0.010916711 0.04733475 0.04439377 0.019869747
000070 ab b9 88 bd a2 0e 87 3c 8e a5 6e bd ad 74 27 3c
       -0.06676038 0.01648647 -0.058263354 0.010220689
000080 16 fb 0f bc 14 37 6d 3d 8d ed 53 bd a0 8d 75 bd
       -0.008787891 0.057913855 -0.051740218 -0.059949517
000090 50 6c ea 3c 10 1e 35 3d 20 da 9b bc 19 4b b2 3c
       0.0286161 0.044218123 -0.019024909 0.021764325
0000a0 89 cb 76 3d 7e d8 1f 3c 36 73 c6 bc 91 3f 1e 3d
       0.0602527 0.009756206 -0.024224859 0.03863484
0000b0 87 66 7e 3d 18 98 5a bc 0f fd 3f 3d 10 55 95 3b
       0.062109496 -0.013341926 0.046872195 0.0045572594
0000c0 17 a8 76 bc 01 eb b1 bb d5 89 8d bd fb ca 1e 3d
       -0.015054724 -0.005429626 -0.06911055 0.038767796
0000d0 c9 3d 11 bd e3 0b 6f bd d2 29 47 bc b9 eb fe bc
       -0.035459314 -0.058360945 -0.012155967 -0.03111826
0000e0 0b ab 44 bd 92 16 6b bc 74 3e ed bb f5 dc aa 3c
       -0.04801468 -0.014348643 -0.007240111 0.020857314
0000f0 fd ba 57 3c dd 3a 1d bc 99 8a 84 3c 0a 90 45 bd
       0.01316714 -0.009596554 0.01617937 -0.04823307
000100 8e cc 75 3d ab a5 0a 3d a2 01 3b 3d e2 a5 70 bd
       0.06000953 0.0338494 0.045655854 -0.05875195
000110 2f c9 60 3d d8 70 30 3c 3f 1a 90 bd 02 ef 8e 3d
       0.054879364 0.010769092 -0.07036256 0.06979181
000120 0a ec 76 ba 1f cb 6f 3c 46 d2 77 3d 96 ae 29 3d
       -0.0009419328 0.01463583 0.060503267 0.041426264
000130 08 3a 72 3d b9 ea 93 bd 05 9b 97 3d 0f 84 85 3c
       0.059137374 -0.07222504 0.074026145 0.016298322
000140 a7 34 95 3a b3 f2 8a bd 51 fc 49 bd 94 4c 73 3d
       0.001138349 -0.067845725 -0.049312893 0.059399202
000150 d2 d9 62 3d 0a 97 6b 3d df 4e ac bb 0f 3a 3d bd
       0.05538351 0.05751709 -0.0052584256 -0.046197947
000160 0e 47 3e 3c 30 ba 1d bd 64 74 3d bd 70 6a ce 3c
       0.01161362 -0.03850764 -0.046253577 0.025197238
000170 14 fd 70 3d c6 27 4c bd 94 57 70 bd 9b 49 7a 3c
       0.058835104 -0.04984262 -0.05867727 0.015276338
000180 10 c0 f5 bc 00 d3 c2 bc 30 0b 4b 3d 23 90 1e bb
       -0.02999881 -0.023782253 0.049571216 -0.00241948
000190 9f d3 93 bc bb 6e 5a 3d 62 f4 ef 3c 38 0e 4e 3c
       -0.018045245 0.053328257 0.029291335 0.012576632
0001a0 b5 6e 0d bd bb 29 a3 bc 2c 15 0a 3d 18 8f c2 bb
       -0.034529407 -0.01991736 0.033711597 -0.0059374683
0001b0 6d 05 85 bd 42 df 34 3c 36 d9 2c 3d a1 fd 91 bc
       -0.064951755 0.011039557 0.042199336 -0.017821135
0001c0 77 bf 62 bc d4 79 28 bc 5c f1 32 3d 5d 30 6d 3d
       -0.013839594 -0.010282952 0.04368721 0.05790745
0001d0 c6 89 70 bd 1c a8 2b 3d f5 f3 c7 3c 17 73 ab 3c
       -0.05872514 0.04190837 0.02440832 0.020928903
0001e0 27 40 2c bd 06 96 26 bd 2c 4b a7 3d d7 d2 86 3c
       -0.042053368 -0.040670417 0.08168635 0.016457958
0001f0 46 b4 94 bc e5 17 7f bc af b1 63 3d e4 dd 31 bc
       -0.018152367 -0.015569662 0.055589374 -0.0108561255
000200 99 35 67 3d c1 bf 5b bc e3 47 c5 3c 87 5c d8 3c
       0.0564476 -0.013412417 0.02408213 0.026411308
000210 12 36 fb bc 79 5d 00 3c 12 4a a9 3c 29 4c 96 bd
       -0.030665431 0.007834786 0.020665202 -0.07338745
000220 03 a3 88 bc ef 5f 90 3b 14 ef 71 3d 95 57 7a 3c
       -0.016679293 0.0044059674 0.059065893 0.01527967
000230 e1 d8 7e bd 35 7c 59 bc 9b 18 a1 3d bf 5e af ba
       -0.06221855 -0.013274242 0.07866021 -0.0013379677
000240 38 01 5a 3d f5 47 f4 3b 4b b3 3e 3d 7e 75 e2 bc
       0.05322382 0.007454867 0.046557706 -0.027643915
000250 d1 8e 97 3d e2 17 99 3c 81 54 5c bc a2 72 67 3d
       0.07400287 0.018688146 -0.013447882 0.056505807
000260 dd be 15 3d a7 09 3e bd e2 8e 27 bb 07 19 5f 3d
       0.036558975 -0.046395924 -0.0025567343 0.054467227
000270 75 cb d9 3c a8 31 19 bc ce 37 05 bd 36 b0 67 bd
       0.026586274 -0.009350218 -0.032523923 -0.056564532
000280 43 95 08 3d c6 a6 d3 3c 43 55 84 bd ef 1c 76 bc
       0.033345472 0.02583636 -0.06461575 -0.015021547
000290 f6 aa 99 3c be e2 8b bd ed a6 6c 3d cc af 3c bc
       0.018758278 -0.06830357 0.05777638 -0.011516523
0002a0 d0 aa 09 bd c5 37 78 3b af b0 b0 3c 76 76 2b 3c
       -0.033610165 0.0037875038 0.021568624 0.010465255
0002b0 ac eb 81 3d b9 6e 16 3d 92 18 ec bc 27 66 3c bc
       0.06343779 0.036726687 -0.02882031 -0.011498964
0002c0 43 9f 7f bb 4d d9 0e bd 85 f9 8b bd b8 49 4d bc
       -0.003900484 -0.034875203 -0.068347014 -0.012529783
0002d0 3c 3b 8a bc 7e 69 71 bd 9e 2e 14 3d e7 48 03 bd
       -0.016873948 -0.058938496 0.03617727 -0.032051947
0002e0 a4 38 89 3d 2c cc c2 3c cd c4 a5 3c 07 04 2e 3c
       0.067002565 0.023778997 0.020235443 0.010621077
0002f0 51 c4 90 3c e3 d7 32 3d b8 e7 4e 3d 98 35 b7 bb
       0.017671736 0.043662917 0.050513953 -0.0055911057
000300 8a c6 bd bc 27 82 8a 3c dd 54 11 bd a9 8e 03 bc
       -0.02316596 0.016907765 -0.035481323 -0.008029618
000310 23 7a 84 3c 94 63 da 3c 7e c3 99 bd 6c 0d 3a bd
       0.01617152 0.02665881 -0.0750799 -0.045422956
000320 92 69 07 bd c1 b3 87 bd dd 75 24 bd b0 d3 3c bc
       -0.033059664 -0.06626082 -0.040151466 -0.01152508
000330 b7 31 19 3d 7a 0e 75 bd 7e 7d 8f 3c 9a c6 8b 3d
       0.037400927 -0.05982826 0.017515894 0.068249896
000340 c0 3f 1a bd 43 02 a4 3c 30 05 08 bd 74 74 83 3c
       -0.037658453 0.02002061 -0.033208072 0.01604674
000350 b3 10 ee 3c 3c 1b 36 bd 1d 82 94 3c 4a be 93 3d
       0.029060697 -0.044459566 0.01812845 0.07214029
000360 29 c7 63 bb e1 67 72 bd 43 72 f2 bb 58 d0 aa 3c
       -0.003475616 -0.059181098 -0.007398875 0.0208513
000370 57 4b c0 3c 85 dd 1d bb 59 bd 9b bc 96 3c 19 bd
       0.023473425 -0.0024088335 -0.019011186 -0.037411295
000380 4d 01 39 3d f7 c9 34 bd fc 77 e6 bc 95 66 35 3d
       0.045167256 -0.04413792 -0.028133385 0.044287283
000390 3c 62 07 bd 75 c5 12 bc 15 f3 ed bc 0e a9 8c bd
       -0.033052668 -0.00895821 -0.029046575 -0.06868182
0003a0 90 92 07 3d be f3 0e bd b5 3f 0b bd 1f cb 85 bc
       0.033098757 -0.03490042 -0.033996303 -0.016332207
0003b0 23 0a a9 3c 6a bd 7c 3d 61 9c 7b 3d 68 bc 26 ba
       0.020634716 0.061704077 0.06142843 -0.0006360472
0003c0 e2 c0 73 bd 8e d6 4b 3c 6b 02 ed 3b 3f 7e 7b 3d
       -0.05951012 0.012441291 0.0072329543 0.061399695
0003d0 97 5a 72 bc 7a 47 8c bd 62 56 c3 3c 08 4e 95 bc
       -0.014792106 -0.068495706 0.023844901 -0.018225685
0003e0 c9 25 b2 3c ab b1 80 3c 4d 4b a9 3c 45 6d 07 3d
       0.021746533 0.015709719 0.020665789 0.033063192
0003f0 07 02 4e bd fb c6 66 bd 3e 70 91 3d ca db 88 3d
       -0.050294902 -0.056342106 0.071014866 0.066825464

conv2.bias f4 [128]
000000 d7 02 db bc d8 06 34 3d fc c5 32 3d 29 ef 91 3d
       -0.026734753 0.04395184 0.043645844 0.07125694
000010 b5 14 3f bd 28 1b a7 3c c8 33 a6 ba fe cd a4 bb
       -0.046650607 0.020398691 -0.0012680227 -0.005029439
000020 3d 30 48 bc cd 1b 3b bd 1a da 67 bd d1 1f 45 3d
       -0.012218532 -0.04568081 -0.056604482 0.048126046
000030 67 eb 44 bd 60 0c 15 3d ad 40 39 bd 4d 79 b7 bc
       -0.04807606 0.036388755 -0.045227695 -0.022396708
000040 52 93 65 bc db 47 7f 3d 07 1f 59 bd 82 33 5a bb
       -0.014012175 0.062324386 -0.053008106 -0.0033294861
000050 e7 d5 0a bd a0 7c 9d 3d f2 7e 17 bc 09 d3 d0 3b
       -0.0338954 0.07689786 -0.009246575 0.0063728136
000060 90 60 2c bd 08 ae 42 3d 97 20 23 3d b6 e0 2f 3d
       -0.042084277 0.04752925 0.039826002 0.04293891
000070 b3 f3 30 bd 6a 33 75 bd d1 8e 03 3c 00 97 cb bc
       -0.04320116 -0.059863485 0.008029656 -0.024852276
000080 ad a4 c3 bc e7 88 17 3d e9 51 2f bc 0f e2 21 3d
       -0.023882234 0.036995795 -0.010700681 0.039522227
000090 e3 17 5d bd cc d3 99 3c 90 96 69 bd b1 04 fc bc
       -0.05397786 0.01877775 -0.057028353 -0.030763956
0000a0 b2 c3 dc 3c 1c b8 5a bd a3 c3 22 3d 6a 46 27 3d
       0.026948784 -0.053398237 0.039737355 0.040838636
0000b0 18 6c d6 3c 9b 78 7f bc 73 7e 1f 3c c9 b9 fc 3b
       0.02617459 -0.015592719 0.009734738 0.007712577
0000c0 15 bb d4 bc e5 31 5e bd 3d 37 fd bb ce b2 da 3c
       -0.025968114 -0.054246802 -0.007727532 0.026696589
0000d0 57 50 66 bb 8e 57 bc 3c 68 7e 89 bc 31 f4 08 bd
       -0.00351431 0.022990968 -0.016783908 -0.033436004
0000e0 2d 41 69 bd 0a 96 8a bd bc 16 06 bd 4b b0 ce bc
       -0.056946922 -0.06766899 -0.032736525 -0.025230547
0000f0 bd 36 70 bd 55 fb 98 3d ed 5b 7d bd 84 4b 1b 3d
       -0.058645952 0.07469813 -0.061855245 0.037913814
000100 20 79 4d 3d 08 3a 33 3c 53 ee 68 3d 7b c0 16 bd
       0.050164342 0.010939129 0.05686791 -0.036804657
000110 25 10 88 3d 19 9a ba 3c 3a 6d 2e bc 04 f3 83 bd
       0.06643704 0.022778558 -0.010646159 -0.06442836
000120 e0 09 e8 3b af 82 96 bd b1 61 d6 3c dd 2f 21 bd
       0.0070812553 -0.07349145 0.02616963 -0.039352287
000130 11 73 2b bd 5a 28 98 3b 0d cc 5a bd 76 b2 09 3c
       -0.041857783 0.004643482 -0.053417254 0.008404365
000140 32 6a f4 3b 56 47 e7 3c 2a c1 6d 3d 88 1a 55 3d
       0.0074589485 0.028232258 0.058045544 0.052027255
000150 29 53 3b 3d 3d 36 29 bd f6 07 0f bd 35 b3 72 3d
       0.045733605 -0.04131149 -0.0349197 0.059252936
000160 c2 ff 1a bd d0 4b 35 3b 7a ed 0c 3d 38 fd 86 3d
       -0.037841566 0.0027663596 0.034406163 0.065912664
000170 26 89 d0 3c 62 1b 8c 3c d2 ca 6c 3d 2d f4 3f 3d
       0.025456022 0.0171029 0.057810612 0.046863724
000180 54 71 15 bd ab 62 c0 3c 53 87 86 3b 15 ef 22 3d
       -0.03648503 0.023484549 0.0041054874 0.039778788
000190 c3 9b 14 bd 93 c2 9a 3c 02 8e aa 3c 31 e5 41 3d
       -0.03628136 0.018891608 0.020819668 0.047337715
0001a0 57 28 e6 3c 36 b2 48 bd 1e 21 35 3c d3 18 9b bc
       0.028095407 -0.04899808 0.011055259 -0.018932736
0001b0 9e 0c 3e 3c 71 56 bb 3c ce c0 b8 3c 60 a7 29 bd
       0.011599688 0.022868367 0.022552874 -0.041419387
0001c0 e9 3b 8c 3d 18 7f 2b bb 47 95 27 3d af 74 07 3d
       0.068473645 -0.0026168283 0.040913846 0.033070263
0001d0 c9 cd 0b 3d 41 ce a1 bc 2a 80 49 3d 73 52 a5 bb
       0.0341318 -0.01975167 0.049194492 -0.005045229
0001e0 9f ca 0b 3d a5 2d 45 bc 17 ac 5d bc 69 37 2b 3d
       0.03412878 -0.012034808 -0.013529799 0.04180089
0001f0 81 58 05 bd 28 e6 35 bd d2 bf 8a bd ac 8b 49 3d
       -0.032555107 -0.044408947 -0.06774868 0.049205467

fc.weight f4 [10, 128]
000000 57 9f ad 3d 7d a2 c1 3c 9f 10 05 3d 86 f4 85 3d
       0.08477657 0.02363705 0.032486554 0.0654078
000010 ed 08 16 3d a0 7d 81 3c bf 02 a9 3c c2 1c 4e 3d
       0.036629606 0.015806973 0.020631192 0.050320394
000020 41 83 34 bd dd 9c 0a bd 9e 41 e8 bc e2 97 98 bd
       -0.044070486 -0.033841003 -0.028351601 -0.07450844
000030 ed 09 b4 3c ed 68 88 3c 84 ba d5 bc a1 3b 28 3d
       0.02197739 0.016651595 -0.026089914 0.04107249
000040 3f b2 17 bd 39 1d 4c bc 5e f5 de 3c 2d aa 43 3d
       -0.037035223 -0.012458139 0.02721661 0.047769714
000050 9c 82 77 3d 33 f7 e1 bc 6d 16 9d bc af a8 5e bd
       0.060427293 -0.027583694 -0.019175733 -0.054360088
000060 eb 2f a7 bd e3 e6 32 3d b2 e6 9a bd c3 0b d2 3d
       -0.081634365 0.043677222 -0.07563533 0.102561496
000070 fb 34 4e bb 34 74 35 3d 2e fe a0 3d 2a cc 65 39
       -0.0031464684 0.044300273 0.07860981 0.00021915199
000080 98 61 93 3d b1 9c 02 3d a4 52 df bc 2a 10 ef bc
       0.07196349 0.031887714 -0.027261086 -0.029182512
000090 bf 39 ff bc 30 f6 b0 3d 32 03 4b bd 1c 8b 1d bd
       -0.031155465 0.086407065 -0.049563594 -0.038462743
0000a0 ae 73 fc bb 3a 5b c3 bc a8 77 6c bd fb 83 e3 3b
       -0.00770422 -0.023847211 -0.0577313 0.0069432235
0000b0 ee b8 56 3d 88 3d 00 bd 1d ca 13 bd a3 d3 6d bd
       0.052422456 -0.03130868 -0.036081422 -0.05806316
0000c0 3b a6 94 3c 32 af 99 3b 9c 8c 5c 3d 22 63 8d 3d
       0.018145671 0.0046900744 0.053845033 0.06903674
0000d0 09 55 11 bd 28 14 6a 3d 1b a4 8f bd 6c 80 54 bc
       -0.035481486 0.05714813 -0.070137225 -0.012970071
0000e0 eb 8f 63 bd 7b d2 01 bd f5 51 50 bd d4 ef ac bd
       -0.055557173 -0.03169487 -0.05085941 -0.08444181
0000f0 7e 1b 49 bd 41 5f 19 bd 19 45 70 bd d8 c0 90 3d
       -0.049098484 -0.037444357 -0.058659647 0.07068032
000100 a9 2c a6 3d 5d e3 82 bc 90 12 8f bc d4 83 72 bd
       0.08113987 -0.015977556 -0.017464906 -0.059207752
000110 11 a5 d0 3d 11 ff f1 3b 91 71 b0 3c 77 7d 20 bc
       0.10187734 0.0073851426 0.021538528 -0.009795538
000120 d1 87 9d 3d 3c 84 84 3d 02 c8 a7 3d 61 e1 94 3d
       0.076919205 0.06470534 0.08192445 0.0726955
000130 cb 4b 7b bd 42 56 b5 bd 54 2a 64 bd d7 d5 a0 bd
       -0.06135158 -0.08854343 -0.05570443 -0.07853287
000140 1b 5a 9f bc 21 81 f4 bc 90 6c a3 bc d5 7b 9e 3c
       -0.019452145 -0.02984673 -0.019949228 0.019346157
000150 46 f5 7c bc f9 f5 6c 3d 4e 88 25 3d c1 75 bb 3d
       -0.015439337 0.057851765 0.040413193 0.09153319
000160 06 56 19 3d 39 9f e6 bc 69 2e 1f bd 75 2e fa bb
       0.037435554 -0.028152095 -0.03886262 -0.0076349326
000170 c8 8c a8 bd d6 af 1c bd 21 32 1a bd c6 c2 82 3d
       -0.08229977 -0.038253628 -0.037645463 0.06384806
000180 8f b7 80 bd eb c9 48 bd e4 0d 8d bd 8f 56 83 bc
       -0.06285011 -0.04902069 -0.06887415 -0.016032485
000190 c8 8f 76 bd 6d a6 ba bd 18 e4 a0 3d 83 c7 e2 bc
       -0.060195714 -0.091137744 0.078560054 -0.027683025
0001a0 cf f0 6c 3c 46 53 d0 3c cd 16 0a 3b 95 0f c4 3c
       0.01446171 0.025430333 0.002107072 0.023933211
0001b0 78 9d 00 3d f1 bb 12 bd eb b7 c6 bc 56 0e 02 bc
       0.031400174 -0.035823766 -0.02425762 -0.007937988
0001c0 35 71 b7 bd 20 69 aa bd 0b 8b 11 3d 96 f0 be 3b
       -0.089571394 -0.08320832 0.035532992 0.00582702
0001d0 57 d4 89 bd 77 37 7b bd ee db 94 bc df 5d 8e 3d
       -0.06729954 -0.061332192 -0.018171277 0.06951498
0001e0 ee cc b3 3d 46 9a 80 bd d7 17 26 3d ac 57 7a bd
       0.087793216 -0.06279425 0.04055008 -0.061118767
0001f0 ea c0 c0 3d c8 e1 d5 3c 56 96 92 bb b7 12 9d 3d
       0.094117954 0.026108637 -0.004473488 0.07669585
000200 4d 0b 3b bc e6 ec 9e bd e7 57 6e 3d 8e 60 e2 ba
       -0.011416269 -0.077600285 0.0581893 -0.0017271207
000210 9a 61 89 bd 11 68 3d ba 73 aa 5f 3d 0e e7 93 3d
       -0.06708069 -0.0007225285 0.054605912 0.072218046
000220 4e d0 8b bd b0 e7 3c bd 9c b0 ca 3d eb 78 b3 3d
       -0.0682684 -0.046119392 0.09896967 0.08763298
000230 f6 2b 27 3c 53 7c 9b bc 37 6e c0 3d 1b c0 df 3b
       0.010203352 -0.01898018 0.09396022 0.0068283207
000240 4d 20 67 3d 05 18 be bd 4d 0e f7 bd b5 97 80 bc
       0.05642729 -0.09281925 -0.120632745 -0.01569734
000250 ec 20 b2 3c d4 5b c5 bc 7a 65 3c bd 00 7a de 3c
       0.021744214 -0.024091639 -0.045995213 0.027157784
000260 dc 6d b9 bd 4b f8 93 bc fe 88 a7 bd 0e df 2d bd
       -0.09054157 -0.018062731 -0.08180426 -0.04244905
000270 46 65 09 3d 6d 18 a2 bc 9e b6 91 bd 02 75 98 bd
       0.033543848 -0.019787038 -0.071149096 -0.074441925
000280 25 7a e0 3c e3 3d d0 bb 44 a8 ac 3c 7c ec 2e 3d
       0.027401993 -0.0063550337 0.021076329 0.042705998
000290 d9 de 25 bd 8d bc 85 bd 03 98 66 3d 12 f2 98 3d
       -0.040495727 -0.06530104 0.056297313 0.07468046
0002a0 60 e8 4d bd 36 85 6d bd a2 5c 4c bc 02 60 9f 3c
       -0.05027044 -0.057988368 -0.012473257 0.01945496
0002b0 64 a7 87 3b 59 19 e5 3c 44 2a aa 3d c3 88 87 bd
       0.0041398276 0.027966188 0.08308843 -0.06617882
0002c0 9c 43 4a 3d bd 2b ad 3d a5 2f 04 bd fa 05 65 bd
       0.049380884 0.08455608 -0.032272 -0.055913903
0002d0 13 fe e1 3d 5c 6f b2 3d a2 33 93 3c 23 87 20 bd
       0.11034789 0.08712646 0.017968956 -0.039191376
0002e0 8f f8 9c bc 8e 24 aa bd 41 8e 7e bc 7e 4f 52 bd
       -0.01916149 -0.083077535 -0.015536846 -0.05134534
0002f0 9d a4 a2 3d ad 13 1e bc 26 d7 42 3d 4b e9 8c 3d
       0.07941554 -0.009648246 0.047568463 0.068804346
000300 be 57 1b 3d 6e d5 4f 3d 8c 31 5c b8 a4 bf 9b bc
       0.037925474 0.05074065 -5.249823e-05 -0.01901228
000310 46 85 97 bd 93 b0 1f bd ce 62 48 3c 95 38 a5 3d
       -0.07398467 -0.038986754 0.012230588 0.08067433
000320 e2 14 35 bb 7d 1a 0b 3d df 44 0c 3d 49 b7 9b bd
       -0.0027630855 0.033960808 0.034245368 -0.07603318
000330 9d 94 aa 3d fa 96 0a 3d 93 ea 94 bc 94 5f 5d bd
       0.08329127 0.03383539 -0.01817826 -0.05404623
000340 dc 9a 4f bd 74 f3 f4 bc dd 8b 03 bd 8f d4 08 bc
       -0.050684795 -0.029901244 -0.032115806 -0.008351459
000350 40 d3 5b 3d e9 5c 62 bd f3 54 2f bd 51 b6 45 bc
       0.05366826 -0.055264387 -0.042805623 -0.012067393
000360 2b 5b 4b bd 4c 4e 33 3c 01 ca 1e bd 54 95 1f bd
       -0.04964749 0.01094396 -0.038766865 -0.03896077
000370 2b 47 a6 3d d2 b2 3b bc 0d 30 8c bd de 1d 46 3d
       0.08119043 -0.011456208 -0.068451025 0.048368327
000380 97 8b 97 bc 50 38 30 bd fd 4b 8a 3d 55 44 2a bd
       -0.018499179 -0.043022454 0.06752775 -0.041569073
000390 73 fe 3b bd 77 c3 88 3d 58 3b aa bc 3f 53 8c 3d
       -0.04589696 0.06677907 -0.02078025 0.068518154
0003a0 c0 b9 80 3d 5c 33 c9 bb 83 f2 af bc 62 03 57 3d
       0.06285429 -0.0061401557 -0.021477943 0.05249346
0003b0 23 4d 52 3d 37 87 4d bd 10 1a ae 3c e7 42 b4 3c
       0.051343095 -0.05017778 0.021252662 0.022004558
0003c0 12 50 a3 3d e3 b2 72 bd 55 6a 56 bd 93 b4 e9 bc
       0.079742566 -0.05925263 -0.0523475 -0.028528487
0003d0 56 a4 c2 bd 7d e8 69 3a 1c dc 2b 3d 8b 8e 67 bd
       -0.09504001 0.0008922888 0.04195796 -0.056532424
0003e0 8f 8f a9 3d d3 eb 45 3d fa 47 72 3d e9 1b 58 bd
       0.08279335 0.048320603 0.059150673 -0.052760992
0003f0 d1 f0 97 3d be 64 67 3d f1 da 4f 3d f3 6e 9c bd
       0.07418979 0.05649256 0.05074591 -0.076383494

fc.bias f4 [10]
000000 0e a5 99 bd d6 70 73 bd e9 a8 3e bc ff b3 20 3d
       -0.07502185 -0.05943378 -0.011636951 0.039234158
000010 53 bc b4 bd d7 bc 58 bd 1c c0 8d bd 60 67 88 bc
       -0.088249825 -0.052914467 -0.069214076 -0.016650856
000020 07 b5 88 bd d2 f4 29 bd
       -0.06675153 -0.041493244
